name: "Sauron Net"
# note: 
layer {
  name: "data"
  type: "HDF5Data"
  top: "data"
  top: "label"
  hdf5_data_param {
    source: "./train.txt"
    batch_size: 128
  }
}
layer {
  name: "Slice1"
  type: "Slice"
  bottom: "data"
  top: "Slice1"
  top: "Slice2"
  top: "Slice3"
  top: "Slice4"
  top: "Slice5"
  top: "Slice6"
  top: "Slice7"
  top: "Slice8"
  top: "Slice9"
  top: "Slice10"
  top: "Slice11"
  top: "Slice12"
  top: "Slice13"
  top: "Slice14"
  top: "Slice15"
  top: "Slice16"
  top: "Slice17"
  top: "Slice18"
  top: "Slice19"
  top: "Slice20"
  top: "Slice21"
  top: "Slice22"
  top: "Slice23"
  top: "Slice24"
  top: "Slice25"
  top: "Slice26"
  top: "Slice27"
  top: "Slice28"
  top: "Slice29"
  top: "Slice30"
  top: "Slice31"
  top: "Slice32"
  top: "Slice33"
  top: "Slice34"
  top: "Slice35"
  top: "Slice36"
  top: "Slice37"
  top: "Slice38"
  top: "Slice39"
  top: "Slice40"
  top: "Slice41"
  top: "Slice42"
  top: "Slice43"
  top: "Slice44"
  top: "Slice45"
  top: "Slice46"
  top: "Slice47"
  top: "Slice48"
  top: "Slice49"
  top: "Slice50"
  top: "Slice51"
  top: "Slice52"
  top: "Slice53"
  top: "Slice54"
  top: "Slice55"
  top: "Slice56"
  top: "Slice57"
  top: "Slice58"
  top: "Slice59"
  top: "Slice60"
  top: "Slice61"
  top: "Slice62"
  top: "Slice63"
  top: "Slice64"
  top: "Slice65"
  top: "Slice66"
  top: "Slice67"
  top: "Slice68"
  top: "Slice69"
  top: "Slice70"
  top: "Slice71"
  top: "Slice72"
  top: "Slice73"
  top: "Slice74"
  top: "Slice75"
  top: "Slice76"
  top: "Slice77"
  top: "Slice78"
  top: "Slice79"
  top: "Slice80"
  top: "Slice81"
  top: "Slice82"
  top: "Slice83"
  top: "Slice84"
  top: "Slice85"
  top: "Slice86"
  top: "Slice87"
  top: "Slice88"
  top: "Slice89"
  top: "Slice90"
  top: "Slice91"
  top: "Slice92"
  top: "Slice93"
  top: "Slice94"
  top: "Slice95"
  top: "Slice96"
  top: "Slice97"
  top: "Slice98"
  top: "Slice99"
  top: "Slice100"
  slice_param {
    slice_point: 4
    slice_point: 8
    slice_point: 12
    slice_point: 16
    slice_point: 20
    slice_point: 24
    slice_point: 28
    slice_point: 32
    slice_point: 36
    slice_point: 40
    slice_point: 44
    slice_point: 48
    slice_point: 52
    slice_point: 56
    slice_point: 60
    slice_point: 64
    slice_point: 68
    slice_point: 72
    slice_point: 76
    slice_point: 80
    slice_point: 84
    slice_point: 88
    slice_point: 92
    slice_point: 96
    slice_point: 100
    slice_point: 104
    slice_point: 108
    slice_point: 112
    slice_point: 116
    slice_point: 120
    slice_point: 124
    slice_point: 128
    slice_point: 132
    slice_point: 136
    slice_point: 140
    slice_point: 144
    slice_point: 148
    slice_point: 152
    slice_point: 156
    slice_point: 160
    slice_point: 164
    slice_point: 168
    slice_point: 172
    slice_point: 176
    slice_point: 180
    slice_point: 184
    slice_point: 188
    slice_point: 192
    slice_point: 196
    slice_point: 200
    slice_point: 204
    slice_point: 208
    slice_point: 212
    slice_point: 216
    slice_point: 220
    slice_point: 224
    slice_point: 228
    slice_point: 232
    slice_point: 236
    slice_point: 240
    slice_point: 244
    slice_point: 248
    slice_point: 252
    slice_point: 256
    slice_point: 260
    slice_point: 264
    slice_point: 268
    slice_point: 272
    slice_point: 276
    slice_point: 280
    slice_point: 284
    slice_point: 288
    slice_point: 292
    slice_point: 296
    slice_point: 300
    slice_point: 304
    slice_point: 308
    slice_point: 312
    slice_point: 316
    slice_point: 320
    slice_point: 324
    slice_point: 328
    slice_point: 332
    slice_point: 336
    slice_point: 340
    slice_point: 344
    slice_point: 348
    slice_point: 352
    slice_point: 356
    slice_point: 360
    slice_point: 364
    slice_point: 368
    slice_point: 372
    slice_point: 376
    slice_point: 380
    slice_point: 384
    slice_point: 388
    slice_point: 392
    slice_point: 396
    axis: 3
  }
}
layer {
  name: "InnerProduct1"
  type: "InnerProduct"
  bottom: "Slice1"
  top: "InnerProduct1"
  param {
    name: "w_s"
    lr_mult: 1
    decay_mult: 1
  }
  param {
    name: "b_s"
    lr_mult: 2
    decay_mult: 0
  }
  inner_product_param {
    num_output: 128
    weight_filler {
      type: "gaussian"
      std: 0.0098765
    }
    bias_filler {
      type: "constant"
      value: 0
    }
  }
}
layer {
  name: "ReLU1"
  type: "ReLU"
  bottom: "InnerProduct1"
  top: "InnerProduct1"
}
layer {
  name: "InnerProduct2"
  type: "InnerProduct"
  bottom: "InnerProduct1"
  top: "InnerProduct2"
  param {
    name: "w_trans0"
    lr_mult: 1
    decay_mult: 1
  }
  param {
    name: "b_trans0"
    lr_mult: 2
    decay_mult: 0
  }
  inner_product_param {
    num_output: 128
    weight_filler {
      type: "gaussian"
      std: 0.0098765
    }
    bias_filler {
      type: "constant"
      value: 0
    }
  }
}
layer {
  name: "ReLU2"
  type: "ReLU"
  bottom: "InnerProduct2"
  top: "InnerProduct2"
}
layer {
  name: "InnerProduct3"
  type: "InnerProduct"
  bottom: "InnerProduct2"
  top: "InnerProduct3"
  param {
    name: "w_trans0"
    lr_mult: 1
    decay_mult: 1
  }
  param {
    name: "b_trans0"
    lr_mult: 2
    decay_mult: 0
  }
  inner_product_param {
    num_output: 128
    weight_filler {
      type: "gaussian"
      std: 0.0098765
    }
    bias_filler {
      type: "constant"
      value: 0
    }
  }
}
layer {
  name: "ReLU3"
  type: "ReLU"
  bottom: "InnerProduct3"
  top: "InnerProduct3"
}
layer {
  name: "InnerProduct4"
  type: "InnerProduct"
  bottom: "InnerProduct3"
  top: "InnerProduct4"
  param {
    name: "w_trans0"
    lr_mult: 1
    decay_mult: 1
  }
  param {
    name: "b_trans0"
    lr_mult: 2
    decay_mult: 0
  }
  inner_product_param {
    num_output: 128
    weight_filler {
      type: "gaussian"
      std: 0.0098765
    }
    bias_filler {
      type: "constant"
      value: 0
    }
  }
}
layer {
  name: "ReLU4"
  type: "ReLU"
  bottom: "InnerProduct4"
  top: "InnerProduct4"
}
layer {
  name: "InnerProduct5"
  type: "InnerProduct"
  bottom: "InnerProduct4"
  top: "InnerProduct5"
  param {
    name: "w_e"
    lr_mult: 1
    decay_mult: 1
  }
  param {
    name: "b_e"
    lr_mult: 2
    decay_mult: 0
  }
  inner_product_param {
    num_output: 2
    weight_filler {
      type: "gaussian"
      std: 0.0098765
    }
    bias_filler {
      type: "constant"
      value: 0
    }
  }
}
layer {
  name: "ReLU5"
  type: "ReLU"
  bottom: "InnerProduct5"
  top: "InnerProduct5"
}
layer {
  name: "InnerProduct6"
  type: "InnerProduct"
  bottom: "Slice2"
  top: "InnerProduct6"
  param {
    name: "w_s"
    lr_mult: 1
    decay_mult: 1
  }
  param {
    name: "b_s"
    lr_mult: 2
    decay_mult: 0
  }
  inner_product_param {
    num_output: 128
    weight_filler {
      type: "gaussian"
      std: 0.0098765
    }
    bias_filler {
      type: "constant"
      value: 0
    }
  }
}
layer {
  name: "ReLU6"
  type: "ReLU"
  bottom: "InnerProduct6"
  top: "InnerProduct6"
}
layer {
  name: "InnerProduct7"
  type: "InnerProduct"
  bottom: "InnerProduct6"
  top: "InnerProduct7"
  param {
    name: "w_trans0"
    lr_mult: 1
    decay_mult: 1
  }
  param {
    name: "b_trans0"
    lr_mult: 2
    decay_mult: 0
  }
  inner_product_param {
    num_output: 128
    weight_filler {
      type: "gaussian"
      std: 0.0098765
    }
    bias_filler {
      type: "constant"
      value: 0
    }
  }
}
layer {
  name: "ReLU7"
  type: "ReLU"
  bottom: "InnerProduct7"
  top: "InnerProduct7"
}
layer {
  name: "InnerProduct8"
  type: "InnerProduct"
  bottom: "InnerProduct7"
  top: "InnerProduct8"
  param {
    name: "w_trans0"
    lr_mult: 1
    decay_mult: 1
  }
  param {
    name: "b_trans0"
    lr_mult: 2
    decay_mult: 0
  }
  inner_product_param {
    num_output: 128
    weight_filler {
      type: "gaussian"
      std: 0.0098765
    }
    bias_filler {
      type: "constant"
      value: 0
    }
  }
}
layer {
  name: "ReLU8"
  type: "ReLU"
  bottom: "InnerProduct8"
  top: "InnerProduct8"
}
layer {
  name: "InnerProduct9"
  type: "InnerProduct"
  bottom: "InnerProduct8"
  top: "InnerProduct9"
  param {
    name: "w_trans0"
    lr_mult: 1
    decay_mult: 1
  }
  param {
    name: "b_trans0"
    lr_mult: 2
    decay_mult: 0
  }
  inner_product_param {
    num_output: 128
    weight_filler {
      type: "gaussian"
      std: 0.0098765
    }
    bias_filler {
      type: "constant"
      value: 0
    }
  }
}
layer {
  name: "ReLU9"
  type: "ReLU"
  bottom: "InnerProduct9"
  top: "InnerProduct9"
}
layer {
  name: "InnerProduct10"
  type: "InnerProduct"
  bottom: "InnerProduct9"
  top: "InnerProduct10"
  param {
    name: "w_e"
    lr_mult: 1
    decay_mult: 1
  }
  param {
    name: "b_e"
    lr_mult: 2
    decay_mult: 0
  }
  inner_product_param {
    num_output: 2
    weight_filler {
      type: "gaussian"
      std: 0.0098765
    }
    bias_filler {
      type: "constant"
      value: 0
    }
  }
}
layer {
  name: "ReLU10"
  type: "ReLU"
  bottom: "InnerProduct10"
  top: "InnerProduct10"
}
layer {
  name: "InnerProduct11"
  type: "InnerProduct"
  bottom: "Slice3"
  top: "InnerProduct11"
  param {
    name: "w_s"
    lr_mult: 1
    decay_mult: 1
  }
  param {
    name: "b_s"
    lr_mult: 2
    decay_mult: 0
  }
  inner_product_param {
    num_output: 128
    weight_filler {
      type: "gaussian"
      std: 0.0098765
    }
    bias_filler {
      type: "constant"
      value: 0
    }
  }
}
layer {
  name: "ReLU11"
  type: "ReLU"
  bottom: "InnerProduct11"
  top: "InnerProduct11"
}
layer {
  name: "InnerProduct12"
  type: "InnerProduct"
  bottom: "InnerProduct11"
  top: "InnerProduct12"
  param {
    name: "w_trans0"
    lr_mult: 1
    decay_mult: 1
  }
  param {
    name: "b_trans0"
    lr_mult: 2
    decay_mult: 0
  }
  inner_product_param {
    num_output: 128
    weight_filler {
      type: "gaussian"
      std: 0.0098765
    }
    bias_filler {
      type: "constant"
      value: 0
    }
  }
}
layer {
  name: "ReLU12"
  type: "ReLU"
  bottom: "InnerProduct12"
  top: "InnerProduct12"
}
layer {
  name: "InnerProduct13"
  type: "InnerProduct"
  bottom: "InnerProduct12"
  top: "InnerProduct13"
  param {
    name: "w_trans0"
    lr_mult: 1
    decay_mult: 1
  }
  param {
    name: "b_trans0"
    lr_mult: 2
    decay_mult: 0
  }
  inner_product_param {
    num_output: 128
    weight_filler {
      type: "gaussian"
      std: 0.0098765
    }
    bias_filler {
      type: "constant"
      value: 0
    }
  }
}
layer {
  name: "ReLU13"
  type: "ReLU"
  bottom: "InnerProduct13"
  top: "InnerProduct13"
}
layer {
  name: "InnerProduct14"
  type: "InnerProduct"
  bottom: "InnerProduct13"
  top: "InnerProduct14"
  param {
    name: "w_trans0"
    lr_mult: 1
    decay_mult: 1
  }
  param {
    name: "b_trans0"
    lr_mult: 2
    decay_mult: 0
  }
  inner_product_param {
    num_output: 128
    weight_filler {
      type: "gaussian"
      std: 0.0098765
    }
    bias_filler {
      type: "constant"
      value: 0
    }
  }
}
layer {
  name: "ReLU14"
  type: "ReLU"
  bottom: "InnerProduct14"
  top: "InnerProduct14"
}
layer {
  name: "InnerProduct15"
  type: "InnerProduct"
  bottom: "InnerProduct14"
  top: "InnerProduct15"
  param {
    name: "w_e"
    lr_mult: 1
    decay_mult: 1
  }
  param {
    name: "b_e"
    lr_mult: 2
    decay_mult: 0
  }
  inner_product_param {
    num_output: 2
    weight_filler {
      type: "gaussian"
      std: 0.0098765
    }
    bias_filler {
      type: "constant"
      value: 0
    }
  }
}
layer {
  name: "ReLU15"
  type: "ReLU"
  bottom: "InnerProduct15"
  top: "InnerProduct15"
}
layer {
  name: "InnerProduct16"
  type: "InnerProduct"
  bottom: "Slice4"
  top: "InnerProduct16"
  param {
    name: "w_s"
    lr_mult: 1
    decay_mult: 1
  }
  param {
    name: "b_s"
    lr_mult: 2
    decay_mult: 0
  }
  inner_product_param {
    num_output: 128
    weight_filler {
      type: "gaussian"
      std: 0.0098765
    }
    bias_filler {
      type: "constant"
      value: 0
    }
  }
}
layer {
  name: "ReLU16"
  type: "ReLU"
  bottom: "InnerProduct16"
  top: "InnerProduct16"
}
layer {
  name: "InnerProduct17"
  type: "InnerProduct"
  bottom: "InnerProduct16"
  top: "InnerProduct17"
  param {
    name: "w_trans0"
    lr_mult: 1
    decay_mult: 1
  }
  param {
    name: "b_trans0"
    lr_mult: 2
    decay_mult: 0
  }
  inner_product_param {
    num_output: 128
    weight_filler {
      type: "gaussian"
      std: 0.0098765
    }
    bias_filler {
      type: "constant"
      value: 0
    }
  }
}
layer {
  name: "ReLU17"
  type: "ReLU"
  bottom: "InnerProduct17"
  top: "InnerProduct17"
}
layer {
  name: "InnerProduct18"
  type: "InnerProduct"
  bottom: "InnerProduct17"
  top: "InnerProduct18"
  param {
    name: "w_trans0"
    lr_mult: 1
    decay_mult: 1
  }
  param {
    name: "b_trans0"
    lr_mult: 2
    decay_mult: 0
  }
  inner_product_param {
    num_output: 128
    weight_filler {
      type: "gaussian"
      std: 0.0098765
    }
    bias_filler {
      type: "constant"
      value: 0
    }
  }
}
layer {
  name: "ReLU18"
  type: "ReLU"
  bottom: "InnerProduct18"
  top: "InnerProduct18"
}
layer {
  name: "InnerProduct19"
  type: "InnerProduct"
  bottom: "InnerProduct18"
  top: "InnerProduct19"
  param {
    name: "w_trans0"
    lr_mult: 1
    decay_mult: 1
  }
  param {
    name: "b_trans0"
    lr_mult: 2
    decay_mult: 0
  }
  inner_product_param {
    num_output: 128
    weight_filler {
      type: "gaussian"
      std: 0.0098765
    }
    bias_filler {
      type: "constant"
      value: 0
    }
  }
}
layer {
  name: "ReLU19"
  type: "ReLU"
  bottom: "InnerProduct19"
  top: "InnerProduct19"
}
layer {
  name: "InnerProduct20"
  type: "InnerProduct"
  bottom: "InnerProduct19"
  top: "InnerProduct20"
  param {
    name: "w_e"
    lr_mult: 1
    decay_mult: 1
  }
  param {
    name: "b_e"
    lr_mult: 2
    decay_mult: 0
  }
  inner_product_param {
    num_output: 2
    weight_filler {
      type: "gaussian"
      std: 0.0098765
    }
    bias_filler {
      type: "constant"
      value: 0
    }
  }
}
layer {
  name: "ReLU20"
  type: "ReLU"
  bottom: "InnerProduct20"
  top: "InnerProduct20"
}
layer {
  name: "InnerProduct21"
  type: "InnerProduct"
  bottom: "Slice5"
  top: "InnerProduct21"
  param {
    name: "w_s"
    lr_mult: 1
    decay_mult: 1
  }
  param {
    name: "b_s"
    lr_mult: 2
    decay_mult: 0
  }
  inner_product_param {
    num_output: 128
    weight_filler {
      type: "gaussian"
      std: 0.0098765
    }
    bias_filler {
      type: "constant"
      value: 0
    }
  }
}
layer {
  name: "ReLU21"
  type: "ReLU"
  bottom: "InnerProduct21"
  top: "InnerProduct21"
}
layer {
  name: "InnerProduct22"
  type: "InnerProduct"
  bottom: "InnerProduct21"
  top: "InnerProduct22"
  param {
    name: "w_trans0"
    lr_mult: 1
    decay_mult: 1
  }
  param {
    name: "b_trans0"
    lr_mult: 2
    decay_mult: 0
  }
  inner_product_param {
    num_output: 128
    weight_filler {
      type: "gaussian"
      std: 0.0098765
    }
    bias_filler {
      type: "constant"
      value: 0
    }
  }
}
layer {
  name: "ReLU22"
  type: "ReLU"
  bottom: "InnerProduct22"
  top: "InnerProduct22"
}
layer {
  name: "InnerProduct23"
  type: "InnerProduct"
  bottom: "InnerProduct22"
  top: "InnerProduct23"
  param {
    name: "w_trans0"
    lr_mult: 1
    decay_mult: 1
  }
  param {
    name: "b_trans0"
    lr_mult: 2
    decay_mult: 0
  }
  inner_product_param {
    num_output: 128
    weight_filler {
      type: "gaussian"
      std: 0.0098765
    }
    bias_filler {
      type: "constant"
      value: 0
    }
  }
}
layer {
  name: "ReLU23"
  type: "ReLU"
  bottom: "InnerProduct23"
  top: "InnerProduct23"
}
layer {
  name: "InnerProduct24"
  type: "InnerProduct"
  bottom: "InnerProduct23"
  top: "InnerProduct24"
  param {
    name: "w_trans0"
    lr_mult: 1
    decay_mult: 1
  }
  param {
    name: "b_trans0"
    lr_mult: 2
    decay_mult: 0
  }
  inner_product_param {
    num_output: 128
    weight_filler {
      type: "gaussian"
      std: 0.0098765
    }
    bias_filler {
      type: "constant"
      value: 0
    }
  }
}
layer {
  name: "ReLU24"
  type: "ReLU"
  bottom: "InnerProduct24"
  top: "InnerProduct24"
}
layer {
  name: "InnerProduct25"
  type: "InnerProduct"
  bottom: "InnerProduct24"
  top: "InnerProduct25"
  param {
    name: "w_e"
    lr_mult: 1
    decay_mult: 1
  }
  param {
    name: "b_e"
    lr_mult: 2
    decay_mult: 0
  }
  inner_product_param {
    num_output: 2
    weight_filler {
      type: "gaussian"
      std: 0.0098765
    }
    bias_filler {
      type: "constant"
      value: 0
    }
  }
}
layer {
  name: "ReLU25"
  type: "ReLU"
  bottom: "InnerProduct25"
  top: "InnerProduct25"
}
layer {
  name: "InnerProduct26"
  type: "InnerProduct"
  bottom: "Slice6"
  top: "InnerProduct26"
  param {
    name: "w_s"
    lr_mult: 1
    decay_mult: 1
  }
  param {
    name: "b_s"
    lr_mult: 2
    decay_mult: 0
  }
  inner_product_param {
    num_output: 128
    weight_filler {
      type: "gaussian"
      std: 0.0098765
    }
    bias_filler {
      type: "constant"
      value: 0
    }
  }
}
layer {
  name: "ReLU26"
  type: "ReLU"
  bottom: "InnerProduct26"
  top: "InnerProduct26"
}
layer {
  name: "InnerProduct27"
  type: "InnerProduct"
  bottom: "InnerProduct26"
  top: "InnerProduct27"
  param {
    name: "w_trans0"
    lr_mult: 1
    decay_mult: 1
  }
  param {
    name: "b_trans0"
    lr_mult: 2
    decay_mult: 0
  }
  inner_product_param {
    num_output: 128
    weight_filler {
      type: "gaussian"
      std: 0.0098765
    }
    bias_filler {
      type: "constant"
      value: 0
    }
  }
}
layer {
  name: "ReLU27"
  type: "ReLU"
  bottom: "InnerProduct27"
  top: "InnerProduct27"
}
layer {
  name: "InnerProduct28"
  type: "InnerProduct"
  bottom: "InnerProduct27"
  top: "InnerProduct28"
  param {
    name: "w_trans0"
    lr_mult: 1
    decay_mult: 1
  }
  param {
    name: "b_trans0"
    lr_mult: 2
    decay_mult: 0
  }
  inner_product_param {
    num_output: 128
    weight_filler {
      type: "gaussian"
      std: 0.0098765
    }
    bias_filler {
      type: "constant"
      value: 0
    }
  }
}
layer {
  name: "ReLU28"
  type: "ReLU"
  bottom: "InnerProduct28"
  top: "InnerProduct28"
}
layer {
  name: "InnerProduct29"
  type: "InnerProduct"
  bottom: "InnerProduct28"
  top: "InnerProduct29"
  param {
    name: "w_trans0"
    lr_mult: 1
    decay_mult: 1
  }
  param {
    name: "b_trans0"
    lr_mult: 2
    decay_mult: 0
  }
  inner_product_param {
    num_output: 128
    weight_filler {
      type: "gaussian"
      std: 0.0098765
    }
    bias_filler {
      type: "constant"
      value: 0
    }
  }
}
layer {
  name: "ReLU29"
  type: "ReLU"
  bottom: "InnerProduct29"
  top: "InnerProduct29"
}
layer {
  name: "InnerProduct30"
  type: "InnerProduct"
  bottom: "InnerProduct29"
  top: "InnerProduct30"
  param {
    name: "w_e"
    lr_mult: 1
    decay_mult: 1
  }
  param {
    name: "b_e"
    lr_mult: 2
    decay_mult: 0
  }
  inner_product_param {
    num_output: 2
    weight_filler {
      type: "gaussian"
      std: 0.0098765
    }
    bias_filler {
      type: "constant"
      value: 0
    }
  }
}
layer {
  name: "ReLU30"
  type: "ReLU"
  bottom: "InnerProduct30"
  top: "InnerProduct30"
}
layer {
  name: "InnerProduct31"
  type: "InnerProduct"
  bottom: "Slice7"
  top: "InnerProduct31"
  param {
    name: "w_s"
    lr_mult: 1
    decay_mult: 1
  }
  param {
    name: "b_s"
    lr_mult: 2
    decay_mult: 0
  }
  inner_product_param {
    num_output: 128
    weight_filler {
      type: "gaussian"
      std: 0.0098765
    }
    bias_filler {
      type: "constant"
      value: 0
    }
  }
}
layer {
  name: "ReLU31"
  type: "ReLU"
  bottom: "InnerProduct31"
  top: "InnerProduct31"
}
layer {
  name: "InnerProduct32"
  type: "InnerProduct"
  bottom: "InnerProduct31"
  top: "InnerProduct32"
  param {
    name: "w_trans0"
    lr_mult: 1
    decay_mult: 1
  }
  param {
    name: "b_trans0"
    lr_mult: 2
    decay_mult: 0
  }
  inner_product_param {
    num_output: 128
    weight_filler {
      type: "gaussian"
      std: 0.0098765
    }
    bias_filler {
      type: "constant"
      value: 0
    }
  }
}
layer {
  name: "ReLU32"
  type: "ReLU"
  bottom: "InnerProduct32"
  top: "InnerProduct32"
}
layer {
  name: "InnerProduct33"
  type: "InnerProduct"
  bottom: "InnerProduct32"
  top: "InnerProduct33"
  param {
    name: "w_trans0"
    lr_mult: 1
    decay_mult: 1
  }
  param {
    name: "b_trans0"
    lr_mult: 2
    decay_mult: 0
  }
  inner_product_param {
    num_output: 128
    weight_filler {
      type: "gaussian"
      std: 0.0098765
    }
    bias_filler {
      type: "constant"
      value: 0
    }
  }
}
layer {
  name: "ReLU33"
  type: "ReLU"
  bottom: "InnerProduct33"
  top: "InnerProduct33"
}
layer {
  name: "InnerProduct34"
  type: "InnerProduct"
  bottom: "InnerProduct33"
  top: "InnerProduct34"
  param {
    name: "w_trans0"
    lr_mult: 1
    decay_mult: 1
  }
  param {
    name: "b_trans0"
    lr_mult: 2
    decay_mult: 0
  }
  inner_product_param {
    num_output: 128
    weight_filler {
      type: "gaussian"
      std: 0.0098765
    }
    bias_filler {
      type: "constant"
      value: 0
    }
  }
}
layer {
  name: "ReLU34"
  type: "ReLU"
  bottom: "InnerProduct34"
  top: "InnerProduct34"
}
layer {
  name: "InnerProduct35"
  type: "InnerProduct"
  bottom: "InnerProduct34"
  top: "InnerProduct35"
  param {
    name: "w_e"
    lr_mult: 1
    decay_mult: 1
  }
  param {
    name: "b_e"
    lr_mult: 2
    decay_mult: 0
  }
  inner_product_param {
    num_output: 2
    weight_filler {
      type: "gaussian"
      std: 0.0098765
    }
    bias_filler {
      type: "constant"
      value: 0
    }
  }
}
layer {
  name: "ReLU35"
  type: "ReLU"
  bottom: "InnerProduct35"
  top: "InnerProduct35"
}
layer {
  name: "InnerProduct36"
  type: "InnerProduct"
  bottom: "Slice8"
  top: "InnerProduct36"
  param {
    name: "w_s"
    lr_mult: 1
    decay_mult: 1
  }
  param {
    name: "b_s"
    lr_mult: 2
    decay_mult: 0
  }
  inner_product_param {
    num_output: 128
    weight_filler {
      type: "gaussian"
      std: 0.0098765
    }
    bias_filler {
      type: "constant"
      value: 0
    }
  }
}
layer {
  name: "ReLU36"
  type: "ReLU"
  bottom: "InnerProduct36"
  top: "InnerProduct36"
}
layer {
  name: "InnerProduct37"
  type: "InnerProduct"
  bottom: "InnerProduct36"
  top: "InnerProduct37"
  param {
    name: "w_trans0"
    lr_mult: 1
    decay_mult: 1
  }
  param {
    name: "b_trans0"
    lr_mult: 2
    decay_mult: 0
  }
  inner_product_param {
    num_output: 128
    weight_filler {
      type: "gaussian"
      std: 0.0098765
    }
    bias_filler {
      type: "constant"
      value: 0
    }
  }
}
layer {
  name: "ReLU37"
  type: "ReLU"
  bottom: "InnerProduct37"
  top: "InnerProduct37"
}
layer {
  name: "InnerProduct38"
  type: "InnerProduct"
  bottom: "InnerProduct37"
  top: "InnerProduct38"
  param {
    name: "w_trans0"
    lr_mult: 1
    decay_mult: 1
  }
  param {
    name: "b_trans0"
    lr_mult: 2
    decay_mult: 0
  }
  inner_product_param {
    num_output: 128
    weight_filler {
      type: "gaussian"
      std: 0.0098765
    }
    bias_filler {
      type: "constant"
      value: 0
    }
  }
}
layer {
  name: "ReLU38"
  type: "ReLU"
  bottom: "InnerProduct38"
  top: "InnerProduct38"
}
layer {
  name: "InnerProduct39"
  type: "InnerProduct"
  bottom: "InnerProduct38"
  top: "InnerProduct39"
  param {
    name: "w_trans0"
    lr_mult: 1
    decay_mult: 1
  }
  param {
    name: "b_trans0"
    lr_mult: 2
    decay_mult: 0
  }
  inner_product_param {
    num_output: 128
    weight_filler {
      type: "gaussian"
      std: 0.0098765
    }
    bias_filler {
      type: "constant"
      value: 0
    }
  }
}
layer {
  name: "ReLU39"
  type: "ReLU"
  bottom: "InnerProduct39"
  top: "InnerProduct39"
}
layer {
  name: "InnerProduct40"
  type: "InnerProduct"
  bottom: "InnerProduct39"
  top: "InnerProduct40"
  param {
    name: "w_e"
    lr_mult: 1
    decay_mult: 1
  }
  param {
    name: "b_e"
    lr_mult: 2
    decay_mult: 0
  }
  inner_product_param {
    num_output: 2
    weight_filler {
      type: "gaussian"
      std: 0.0098765
    }
    bias_filler {
      type: "constant"
      value: 0
    }
  }
}
layer {
  name: "ReLU40"
  type: "ReLU"
  bottom: "InnerProduct40"
  top: "InnerProduct40"
}
layer {
  name: "InnerProduct41"
  type: "InnerProduct"
  bottom: "Slice9"
  top: "InnerProduct41"
  param {
    name: "w_s"
    lr_mult: 1
    decay_mult: 1
  }
  param {
    name: "b_s"
    lr_mult: 2
    decay_mult: 0
  }
  inner_product_param {
    num_output: 128
    weight_filler {
      type: "gaussian"
      std: 0.0098765
    }
    bias_filler {
      type: "constant"
      value: 0
    }
  }
}
layer {
  name: "ReLU41"
  type: "ReLU"
  bottom: "InnerProduct41"
  top: "InnerProduct41"
}
layer {
  name: "InnerProduct42"
  type: "InnerProduct"
  bottom: "InnerProduct41"
  top: "InnerProduct42"
  param {
    name: "w_trans0"
    lr_mult: 1
    decay_mult: 1
  }
  param {
    name: "b_trans0"
    lr_mult: 2
    decay_mult: 0
  }
  inner_product_param {
    num_output: 128
    weight_filler {
      type: "gaussian"
      std: 0.0098765
    }
    bias_filler {
      type: "constant"
      value: 0
    }
  }
}
layer {
  name: "ReLU42"
  type: "ReLU"
  bottom: "InnerProduct42"
  top: "InnerProduct42"
}
layer {
  name: "InnerProduct43"
  type: "InnerProduct"
  bottom: "InnerProduct42"
  top: "InnerProduct43"
  param {
    name: "w_trans0"
    lr_mult: 1
    decay_mult: 1
  }
  param {
    name: "b_trans0"
    lr_mult: 2
    decay_mult: 0
  }
  inner_product_param {
    num_output: 128
    weight_filler {
      type: "gaussian"
      std: 0.0098765
    }
    bias_filler {
      type: "constant"
      value: 0
    }
  }
}
layer {
  name: "ReLU43"
  type: "ReLU"
  bottom: "InnerProduct43"
  top: "InnerProduct43"
}
layer {
  name: "InnerProduct44"
  type: "InnerProduct"
  bottom: "InnerProduct43"
  top: "InnerProduct44"
  param {
    name: "w_trans0"
    lr_mult: 1
    decay_mult: 1
  }
  param {
    name: "b_trans0"
    lr_mult: 2
    decay_mult: 0
  }
  inner_product_param {
    num_output: 128
    weight_filler {
      type: "gaussian"
      std: 0.0098765
    }
    bias_filler {
      type: "constant"
      value: 0
    }
  }
}
layer {
  name: "ReLU44"
  type: "ReLU"
  bottom: "InnerProduct44"
  top: "InnerProduct44"
}
layer {
  name: "InnerProduct45"
  type: "InnerProduct"
  bottom: "InnerProduct44"
  top: "InnerProduct45"
  param {
    name: "w_e"
    lr_mult: 1
    decay_mult: 1
  }
  param {
    name: "b_e"
    lr_mult: 2
    decay_mult: 0
  }
  inner_product_param {
    num_output: 2
    weight_filler {
      type: "gaussian"
      std: 0.0098765
    }
    bias_filler {
      type: "constant"
      value: 0
    }
  }
}
layer {
  name: "ReLU45"
  type: "ReLU"
  bottom: "InnerProduct45"
  top: "InnerProduct45"
}
layer {
  name: "InnerProduct46"
  type: "InnerProduct"
  bottom: "Slice10"
  top: "InnerProduct46"
  param {
    name: "w_s"
    lr_mult: 1
    decay_mult: 1
  }
  param {
    name: "b_s"
    lr_mult: 2
    decay_mult: 0
  }
  inner_product_param {
    num_output: 128
    weight_filler {
      type: "gaussian"
      std: 0.0098765
    }
    bias_filler {
      type: "constant"
      value: 0
    }
  }
}
layer {
  name: "ReLU46"
  type: "ReLU"
  bottom: "InnerProduct46"
  top: "InnerProduct46"
}
layer {
  name: "InnerProduct47"
  type: "InnerProduct"
  bottom: "InnerProduct46"
  top: "InnerProduct47"
  param {
    name: "w_trans0"
    lr_mult: 1
    decay_mult: 1
  }
  param {
    name: "b_trans0"
    lr_mult: 2
    decay_mult: 0
  }
  inner_product_param {
    num_output: 128
    weight_filler {
      type: "gaussian"
      std: 0.0098765
    }
    bias_filler {
      type: "constant"
      value: 0
    }
  }
}
layer {
  name: "ReLU47"
  type: "ReLU"
  bottom: "InnerProduct47"
  top: "InnerProduct47"
}
layer {
  name: "InnerProduct48"
  type: "InnerProduct"
  bottom: "InnerProduct47"
  top: "InnerProduct48"
  param {
    name: "w_trans0"
    lr_mult: 1
    decay_mult: 1
  }
  param {
    name: "b_trans0"
    lr_mult: 2
    decay_mult: 0
  }
  inner_product_param {
    num_output: 128
    weight_filler {
      type: "gaussian"
      std: 0.0098765
    }
    bias_filler {
      type: "constant"
      value: 0
    }
  }
}
layer {
  name: "ReLU48"
  type: "ReLU"
  bottom: "InnerProduct48"
  top: "InnerProduct48"
}
layer {
  name: "InnerProduct49"
  type: "InnerProduct"
  bottom: "InnerProduct48"
  top: "InnerProduct49"
  param {
    name: "w_trans0"
    lr_mult: 1
    decay_mult: 1
  }
  param {
    name: "b_trans0"
    lr_mult: 2
    decay_mult: 0
  }
  inner_product_param {
    num_output: 128
    weight_filler {
      type: "gaussian"
      std: 0.0098765
    }
    bias_filler {
      type: "constant"
      value: 0
    }
  }
}
layer {
  name: "ReLU49"
  type: "ReLU"
  bottom: "InnerProduct49"
  top: "InnerProduct49"
}
layer {
  name: "InnerProduct50"
  type: "InnerProduct"
  bottom: "InnerProduct49"
  top: "InnerProduct50"
  param {
    name: "w_e"
    lr_mult: 1
    decay_mult: 1
  }
  param {
    name: "b_e"
    lr_mult: 2
    decay_mult: 0
  }
  inner_product_param {
    num_output: 2
    weight_filler {
      type: "gaussian"
      std: 0.0098765
    }
    bias_filler {
      type: "constant"
      value: 0
    }
  }
}
layer {
  name: "ReLU50"
  type: "ReLU"
  bottom: "InnerProduct50"
  top: "InnerProduct50"
}
layer {
  name: "InnerProduct51"
  type: "InnerProduct"
  bottom: "Slice11"
  top: "InnerProduct51"
  param {
    name: "w_s"
    lr_mult: 1
    decay_mult: 1
  }
  param {
    name: "b_s"
    lr_mult: 2
    decay_mult: 0
  }
  inner_product_param {
    num_output: 128
    weight_filler {
      type: "gaussian"
      std: 0.0098765
    }
    bias_filler {
      type: "constant"
      value: 0
    }
  }
}
layer {
  name: "ReLU51"
  type: "ReLU"
  bottom: "InnerProduct51"
  top: "InnerProduct51"
}
layer {
  name: "InnerProduct52"
  type: "InnerProduct"
  bottom: "InnerProduct51"
  top: "InnerProduct52"
  param {
    name: "w_trans0"
    lr_mult: 1
    decay_mult: 1
  }
  param {
    name: "b_trans0"
    lr_mult: 2
    decay_mult: 0
  }
  inner_product_param {
    num_output: 128
    weight_filler {
      type: "gaussian"
      std: 0.0098765
    }
    bias_filler {
      type: "constant"
      value: 0
    }
  }
}
layer {
  name: "ReLU52"
  type: "ReLU"
  bottom: "InnerProduct52"
  top: "InnerProduct52"
}
layer {
  name: "InnerProduct53"
  type: "InnerProduct"
  bottom: "InnerProduct52"
  top: "InnerProduct53"
  param {
    name: "w_trans0"
    lr_mult: 1
    decay_mult: 1
  }
  param {
    name: "b_trans0"
    lr_mult: 2
    decay_mult: 0
  }
  inner_product_param {
    num_output: 128
    weight_filler {
      type: "gaussian"
      std: 0.0098765
    }
    bias_filler {
      type: "constant"
      value: 0
    }
  }
}
layer {
  name: "ReLU53"
  type: "ReLU"
  bottom: "InnerProduct53"
  top: "InnerProduct53"
}
layer {
  name: "InnerProduct54"
  type: "InnerProduct"
  bottom: "InnerProduct53"
  top: "InnerProduct54"
  param {
    name: "w_trans0"
    lr_mult: 1
    decay_mult: 1
  }
  param {
    name: "b_trans0"
    lr_mult: 2
    decay_mult: 0
  }
  inner_product_param {
    num_output: 128
    weight_filler {
      type: "gaussian"
      std: 0.0098765
    }
    bias_filler {
      type: "constant"
      value: 0
    }
  }
}
layer {
  name: "ReLU54"
  type: "ReLU"
  bottom: "InnerProduct54"
  top: "InnerProduct54"
}
layer {
  name: "InnerProduct55"
  type: "InnerProduct"
  bottom: "InnerProduct54"
  top: "InnerProduct55"
  param {
    name: "w_e"
    lr_mult: 1
    decay_mult: 1
  }
  param {
    name: "b_e"
    lr_mult: 2
    decay_mult: 0
  }
  inner_product_param {
    num_output: 2
    weight_filler {
      type: "gaussian"
      std: 0.0098765
    }
    bias_filler {
      type: "constant"
      value: 0
    }
  }
}
layer {
  name: "ReLU55"
  type: "ReLU"
  bottom: "InnerProduct55"
  top: "InnerProduct55"
}
layer {
  name: "InnerProduct56"
  type: "InnerProduct"
  bottom: "Slice12"
  top: "InnerProduct56"
  param {
    name: "w_s"
    lr_mult: 1
    decay_mult: 1
  }
  param {
    name: "b_s"
    lr_mult: 2
    decay_mult: 0
  }
  inner_product_param {
    num_output: 128
    weight_filler {
      type: "gaussian"
      std: 0.0098765
    }
    bias_filler {
      type: "constant"
      value: 0
    }
  }
}
layer {
  name: "ReLU56"
  type: "ReLU"
  bottom: "InnerProduct56"
  top: "InnerProduct56"
}
layer {
  name: "InnerProduct57"
  type: "InnerProduct"
  bottom: "InnerProduct56"
  top: "InnerProduct57"
  param {
    name: "w_trans0"
    lr_mult: 1
    decay_mult: 1
  }
  param {
    name: "b_trans0"
    lr_mult: 2
    decay_mult: 0
  }
  inner_product_param {
    num_output: 128
    weight_filler {
      type: "gaussian"
      std: 0.0098765
    }
    bias_filler {
      type: "constant"
      value: 0
    }
  }
}
layer {
  name: "ReLU57"
  type: "ReLU"
  bottom: "InnerProduct57"
  top: "InnerProduct57"
}
layer {
  name: "InnerProduct58"
  type: "InnerProduct"
  bottom: "InnerProduct57"
  top: "InnerProduct58"
  param {
    name: "w_trans0"
    lr_mult: 1
    decay_mult: 1
  }
  param {
    name: "b_trans0"
    lr_mult: 2
    decay_mult: 0
  }
  inner_product_param {
    num_output: 128
    weight_filler {
      type: "gaussian"
      std: 0.0098765
    }
    bias_filler {
      type: "constant"
      value: 0
    }
  }
}
layer {
  name: "ReLU58"
  type: "ReLU"
  bottom: "InnerProduct58"
  top: "InnerProduct58"
}
layer {
  name: "InnerProduct59"
  type: "InnerProduct"
  bottom: "InnerProduct58"
  top: "InnerProduct59"
  param {
    name: "w_trans0"
    lr_mult: 1
    decay_mult: 1
  }
  param {
    name: "b_trans0"
    lr_mult: 2
    decay_mult: 0
  }
  inner_product_param {
    num_output: 128
    weight_filler {
      type: "gaussian"
      std: 0.0098765
    }
    bias_filler {
      type: "constant"
      value: 0
    }
  }
}
layer {
  name: "ReLU59"
  type: "ReLU"
  bottom: "InnerProduct59"
  top: "InnerProduct59"
}
layer {
  name: "InnerProduct60"
  type: "InnerProduct"
  bottom: "InnerProduct59"
  top: "InnerProduct60"
  param {
    name: "w_e"
    lr_mult: 1
    decay_mult: 1
  }
  param {
    name: "b_e"
    lr_mult: 2
    decay_mult: 0
  }
  inner_product_param {
    num_output: 2
    weight_filler {
      type: "gaussian"
      std: 0.0098765
    }
    bias_filler {
      type: "constant"
      value: 0
    }
  }
}
layer {
  name: "ReLU60"
  type: "ReLU"
  bottom: "InnerProduct60"
  top: "InnerProduct60"
}
layer {
  name: "InnerProduct61"
  type: "InnerProduct"
  bottom: "Slice13"
  top: "InnerProduct61"
  param {
    name: "w_s"
    lr_mult: 1
    decay_mult: 1
  }
  param {
    name: "b_s"
    lr_mult: 2
    decay_mult: 0
  }
  inner_product_param {
    num_output: 128
    weight_filler {
      type: "gaussian"
      std: 0.0098765
    }
    bias_filler {
      type: "constant"
      value: 0
    }
  }
}
layer {
  name: "ReLU61"
  type: "ReLU"
  bottom: "InnerProduct61"
  top: "InnerProduct61"
}
layer {
  name: "InnerProduct62"
  type: "InnerProduct"
  bottom: "InnerProduct61"
  top: "InnerProduct62"
  param {
    name: "w_trans0"
    lr_mult: 1
    decay_mult: 1
  }
  param {
    name: "b_trans0"
    lr_mult: 2
    decay_mult: 0
  }
  inner_product_param {
    num_output: 128
    weight_filler {
      type: "gaussian"
      std: 0.0098765
    }
    bias_filler {
      type: "constant"
      value: 0
    }
  }
}
layer {
  name: "ReLU62"
  type: "ReLU"
  bottom: "InnerProduct62"
  top: "InnerProduct62"
}
layer {
  name: "InnerProduct63"
  type: "InnerProduct"
  bottom: "InnerProduct62"
  top: "InnerProduct63"
  param {
    name: "w_trans0"
    lr_mult: 1
    decay_mult: 1
  }
  param {
    name: "b_trans0"
    lr_mult: 2
    decay_mult: 0
  }
  inner_product_param {
    num_output: 128
    weight_filler {
      type: "gaussian"
      std: 0.0098765
    }
    bias_filler {
      type: "constant"
      value: 0
    }
  }
}
layer {
  name: "ReLU63"
  type: "ReLU"
  bottom: "InnerProduct63"
  top: "InnerProduct63"
}
layer {
  name: "InnerProduct64"
  type: "InnerProduct"
  bottom: "InnerProduct63"
  top: "InnerProduct64"
  param {
    name: "w_trans0"
    lr_mult: 1
    decay_mult: 1
  }
  param {
    name: "b_trans0"
    lr_mult: 2
    decay_mult: 0
  }
  inner_product_param {
    num_output: 128
    weight_filler {
      type: "gaussian"
      std: 0.0098765
    }
    bias_filler {
      type: "constant"
      value: 0
    }
  }
}
layer {
  name: "ReLU64"
  type: "ReLU"
  bottom: "InnerProduct64"
  top: "InnerProduct64"
}
layer {
  name: "InnerProduct65"
  type: "InnerProduct"
  bottom: "InnerProduct64"
  top: "InnerProduct65"
  param {
    name: "w_e"
    lr_mult: 1
    decay_mult: 1
  }
  param {
    name: "b_e"
    lr_mult: 2
    decay_mult: 0
  }
  inner_product_param {
    num_output: 2
    weight_filler {
      type: "gaussian"
      std: 0.0098765
    }
    bias_filler {
      type: "constant"
      value: 0
    }
  }
}
layer {
  name: "ReLU65"
  type: "ReLU"
  bottom: "InnerProduct65"
  top: "InnerProduct65"
}
layer {
  name: "InnerProduct66"
  type: "InnerProduct"
  bottom: "Slice14"
  top: "InnerProduct66"
  param {
    name: "w_s"
    lr_mult: 1
    decay_mult: 1
  }
  param {
    name: "b_s"
    lr_mult: 2
    decay_mult: 0
  }
  inner_product_param {
    num_output: 128
    weight_filler {
      type: "gaussian"
      std: 0.0098765
    }
    bias_filler {
      type: "constant"
      value: 0
    }
  }
}
layer {
  name: "ReLU66"
  type: "ReLU"
  bottom: "InnerProduct66"
  top: "InnerProduct66"
}
layer {
  name: "InnerProduct67"
  type: "InnerProduct"
  bottom: "InnerProduct66"
  top: "InnerProduct67"
  param {
    name: "w_trans0"
    lr_mult: 1
    decay_mult: 1
  }
  param {
    name: "b_trans0"
    lr_mult: 2
    decay_mult: 0
  }
  inner_product_param {
    num_output: 128
    weight_filler {
      type: "gaussian"
      std: 0.0098765
    }
    bias_filler {
      type: "constant"
      value: 0
    }
  }
}
layer {
  name: "ReLU67"
  type: "ReLU"
  bottom: "InnerProduct67"
  top: "InnerProduct67"
}
layer {
  name: "InnerProduct68"
  type: "InnerProduct"
  bottom: "InnerProduct67"
  top: "InnerProduct68"
  param {
    name: "w_trans0"
    lr_mult: 1
    decay_mult: 1
  }
  param {
    name: "b_trans0"
    lr_mult: 2
    decay_mult: 0
  }
  inner_product_param {
    num_output: 128
    weight_filler {
      type: "gaussian"
      std: 0.0098765
    }
    bias_filler {
      type: "constant"
      value: 0
    }
  }
}
layer {
  name: "ReLU68"
  type: "ReLU"
  bottom: "InnerProduct68"
  top: "InnerProduct68"
}
layer {
  name: "InnerProduct69"
  type: "InnerProduct"
  bottom: "InnerProduct68"
  top: "InnerProduct69"
  param {
    name: "w_trans0"
    lr_mult: 1
    decay_mult: 1
  }
  param {
    name: "b_trans0"
    lr_mult: 2
    decay_mult: 0
  }
  inner_product_param {
    num_output: 128
    weight_filler {
      type: "gaussian"
      std: 0.0098765
    }
    bias_filler {
      type: "constant"
      value: 0
    }
  }
}
layer {
  name: "ReLU69"
  type: "ReLU"
  bottom: "InnerProduct69"
  top: "InnerProduct69"
}
layer {
  name: "InnerProduct70"
  type: "InnerProduct"
  bottom: "InnerProduct69"
  top: "InnerProduct70"
  param {
    name: "w_e"
    lr_mult: 1
    decay_mult: 1
  }
  param {
    name: "b_e"
    lr_mult: 2
    decay_mult: 0
  }
  inner_product_param {
    num_output: 2
    weight_filler {
      type: "gaussian"
      std: 0.0098765
    }
    bias_filler {
      type: "constant"
      value: 0
    }
  }
}
layer {
  name: "ReLU70"
  type: "ReLU"
  bottom: "InnerProduct70"
  top: "InnerProduct70"
}
layer {
  name: "InnerProduct71"
  type: "InnerProduct"
  bottom: "Slice15"
  top: "InnerProduct71"
  param {
    name: "w_s"
    lr_mult: 1
    decay_mult: 1
  }
  param {
    name: "b_s"
    lr_mult: 2
    decay_mult: 0
  }
  inner_product_param {
    num_output: 128
    weight_filler {
      type: "gaussian"
      std: 0.0098765
    }
    bias_filler {
      type: "constant"
      value: 0
    }
  }
}
layer {
  name: "ReLU71"
  type: "ReLU"
  bottom: "InnerProduct71"
  top: "InnerProduct71"
}
layer {
  name: "InnerProduct72"
  type: "InnerProduct"
  bottom: "InnerProduct71"
  top: "InnerProduct72"
  param {
    name: "w_trans0"
    lr_mult: 1
    decay_mult: 1
  }
  param {
    name: "b_trans0"
    lr_mult: 2
    decay_mult: 0
  }
  inner_product_param {
    num_output: 128
    weight_filler {
      type: "gaussian"
      std: 0.0098765
    }
    bias_filler {
      type: "constant"
      value: 0
    }
  }
}
layer {
  name: "ReLU72"
  type: "ReLU"
  bottom: "InnerProduct72"
  top: "InnerProduct72"
}
layer {
  name: "InnerProduct73"
  type: "InnerProduct"
  bottom: "InnerProduct72"
  top: "InnerProduct73"
  param {
    name: "w_trans0"
    lr_mult: 1
    decay_mult: 1
  }
  param {
    name: "b_trans0"
    lr_mult: 2
    decay_mult: 0
  }
  inner_product_param {
    num_output: 128
    weight_filler {
      type: "gaussian"
      std: 0.0098765
    }
    bias_filler {
      type: "constant"
      value: 0
    }
  }
}
layer {
  name: "ReLU73"
  type: "ReLU"
  bottom: "InnerProduct73"
  top: "InnerProduct73"
}
layer {
  name: "InnerProduct74"
  type: "InnerProduct"
  bottom: "InnerProduct73"
  top: "InnerProduct74"
  param {
    name: "w_trans0"
    lr_mult: 1
    decay_mult: 1
  }
  param {
    name: "b_trans0"
    lr_mult: 2
    decay_mult: 0
  }
  inner_product_param {
    num_output: 128
    weight_filler {
      type: "gaussian"
      std: 0.0098765
    }
    bias_filler {
      type: "constant"
      value: 0
    }
  }
}
layer {
  name: "ReLU74"
  type: "ReLU"
  bottom: "InnerProduct74"
  top: "InnerProduct74"
}
layer {
  name: "InnerProduct75"
  type: "InnerProduct"
  bottom: "InnerProduct74"
  top: "InnerProduct75"
  param {
    name: "w_e"
    lr_mult: 1
    decay_mult: 1
  }
  param {
    name: "b_e"
    lr_mult: 2
    decay_mult: 0
  }
  inner_product_param {
    num_output: 2
    weight_filler {
      type: "gaussian"
      std: 0.0098765
    }
    bias_filler {
      type: "constant"
      value: 0
    }
  }
}
layer {
  name: "ReLU75"
  type: "ReLU"
  bottom: "InnerProduct75"
  top: "InnerProduct75"
}
layer {
  name: "InnerProduct76"
  type: "InnerProduct"
  bottom: "Slice16"
  top: "InnerProduct76"
  param {
    name: "w_s"
    lr_mult: 1
    decay_mult: 1
  }
  param {
    name: "b_s"
    lr_mult: 2
    decay_mult: 0
  }
  inner_product_param {
    num_output: 128
    weight_filler {
      type: "gaussian"
      std: 0.0098765
    }
    bias_filler {
      type: "constant"
      value: 0
    }
  }
}
layer {
  name: "ReLU76"
  type: "ReLU"
  bottom: "InnerProduct76"
  top: "InnerProduct76"
}
layer {
  name: "InnerProduct77"
  type: "InnerProduct"
  bottom: "InnerProduct76"
  top: "InnerProduct77"
  param {
    name: "w_trans0"
    lr_mult: 1
    decay_mult: 1
  }
  param {
    name: "b_trans0"
    lr_mult: 2
    decay_mult: 0
  }
  inner_product_param {
    num_output: 128
    weight_filler {
      type: "gaussian"
      std: 0.0098765
    }
    bias_filler {
      type: "constant"
      value: 0
    }
  }
}
layer {
  name: "ReLU77"
  type: "ReLU"
  bottom: "InnerProduct77"
  top: "InnerProduct77"
}
layer {
  name: "InnerProduct78"
  type: "InnerProduct"
  bottom: "InnerProduct77"
  top: "InnerProduct78"
  param {
    name: "w_trans0"
    lr_mult: 1
    decay_mult: 1
  }
  param {
    name: "b_trans0"
    lr_mult: 2
    decay_mult: 0
  }
  inner_product_param {
    num_output: 128
    weight_filler {
      type: "gaussian"
      std: 0.0098765
    }
    bias_filler {
      type: "constant"
      value: 0
    }
  }
}
layer {
  name: "ReLU78"
  type: "ReLU"
  bottom: "InnerProduct78"
  top: "InnerProduct78"
}
layer {
  name: "InnerProduct79"
  type: "InnerProduct"
  bottom: "InnerProduct78"
  top: "InnerProduct79"
  param {
    name: "w_trans0"
    lr_mult: 1
    decay_mult: 1
  }
  param {
    name: "b_trans0"
    lr_mult: 2
    decay_mult: 0
  }
  inner_product_param {
    num_output: 128
    weight_filler {
      type: "gaussian"
      std: 0.0098765
    }
    bias_filler {
      type: "constant"
      value: 0
    }
  }
}
layer {
  name: "ReLU79"
  type: "ReLU"
  bottom: "InnerProduct79"
  top: "InnerProduct79"
}
layer {
  name: "InnerProduct80"
  type: "InnerProduct"
  bottom: "InnerProduct79"
  top: "InnerProduct80"
  param {
    name: "w_e"
    lr_mult: 1
    decay_mult: 1
  }
  param {
    name: "b_e"
    lr_mult: 2
    decay_mult: 0
  }
  inner_product_param {
    num_output: 2
    weight_filler {
      type: "gaussian"
      std: 0.0098765
    }
    bias_filler {
      type: "constant"
      value: 0
    }
  }
}
layer {
  name: "ReLU80"
  type: "ReLU"
  bottom: "InnerProduct80"
  top: "InnerProduct80"
}
layer {
  name: "InnerProduct81"
  type: "InnerProduct"
  bottom: "Slice17"
  top: "InnerProduct81"
  param {
    name: "w_s"
    lr_mult: 1
    decay_mult: 1
  }
  param {
    name: "b_s"
    lr_mult: 2
    decay_mult: 0
  }
  inner_product_param {
    num_output: 128
    weight_filler {
      type: "gaussian"
      std: 0.0098765
    }
    bias_filler {
      type: "constant"
      value: 0
    }
  }
}
layer {
  name: "ReLU81"
  type: "ReLU"
  bottom: "InnerProduct81"
  top: "InnerProduct81"
}
layer {
  name: "InnerProduct82"
  type: "InnerProduct"
  bottom: "InnerProduct81"
  top: "InnerProduct82"
  param {
    name: "w_trans0"
    lr_mult: 1
    decay_mult: 1
  }
  param {
    name: "b_trans0"
    lr_mult: 2
    decay_mult: 0
  }
  inner_product_param {
    num_output: 128
    weight_filler {
      type: "gaussian"
      std: 0.0098765
    }
    bias_filler {
      type: "constant"
      value: 0
    }
  }
}
layer {
  name: "ReLU82"
  type: "ReLU"
  bottom: "InnerProduct82"
  top: "InnerProduct82"
}
layer {
  name: "InnerProduct83"
  type: "InnerProduct"
  bottom: "InnerProduct82"
  top: "InnerProduct83"
  param {
    name: "w_trans0"
    lr_mult: 1
    decay_mult: 1
  }
  param {
    name: "b_trans0"
    lr_mult: 2
    decay_mult: 0
  }
  inner_product_param {
    num_output: 128
    weight_filler {
      type: "gaussian"
      std: 0.0098765
    }
    bias_filler {
      type: "constant"
      value: 0
    }
  }
}
layer {
  name: "ReLU83"
  type: "ReLU"
  bottom: "InnerProduct83"
  top: "InnerProduct83"
}
layer {
  name: "InnerProduct84"
  type: "InnerProduct"
  bottom: "InnerProduct83"
  top: "InnerProduct84"
  param {
    name: "w_trans0"
    lr_mult: 1
    decay_mult: 1
  }
  param {
    name: "b_trans0"
    lr_mult: 2
    decay_mult: 0
  }
  inner_product_param {
    num_output: 128
    weight_filler {
      type: "gaussian"
      std: 0.0098765
    }
    bias_filler {
      type: "constant"
      value: 0
    }
  }
}
layer {
  name: "ReLU84"
  type: "ReLU"
  bottom: "InnerProduct84"
  top: "InnerProduct84"
}
layer {
  name: "InnerProduct85"
  type: "InnerProduct"
  bottom: "InnerProduct84"
  top: "InnerProduct85"
  param {
    name: "w_e"
    lr_mult: 1
    decay_mult: 1
  }
  param {
    name: "b_e"
    lr_mult: 2
    decay_mult: 0
  }
  inner_product_param {
    num_output: 2
    weight_filler {
      type: "gaussian"
      std: 0.0098765
    }
    bias_filler {
      type: "constant"
      value: 0
    }
  }
}
layer {
  name: "ReLU85"
  type: "ReLU"
  bottom: "InnerProduct85"
  top: "InnerProduct85"
}
layer {
  name: "InnerProduct86"
  type: "InnerProduct"
  bottom: "Slice18"
  top: "InnerProduct86"
  param {
    name: "w_s"
    lr_mult: 1
    decay_mult: 1
  }
  param {
    name: "b_s"
    lr_mult: 2
    decay_mult: 0
  }
  inner_product_param {
    num_output: 128
    weight_filler {
      type: "gaussian"
      std: 0.0098765
    }
    bias_filler {
      type: "constant"
      value: 0
    }
  }
}
layer {
  name: "ReLU86"
  type: "ReLU"
  bottom: "InnerProduct86"
  top: "InnerProduct86"
}
layer {
  name: "InnerProduct87"
  type: "InnerProduct"
  bottom: "InnerProduct86"
  top: "InnerProduct87"
  param {
    name: "w_trans0"
    lr_mult: 1
    decay_mult: 1
  }
  param {
    name: "b_trans0"
    lr_mult: 2
    decay_mult: 0
  }
  inner_product_param {
    num_output: 128
    weight_filler {
      type: "gaussian"
      std: 0.0098765
    }
    bias_filler {
      type: "constant"
      value: 0
    }
  }
}
layer {
  name: "ReLU87"
  type: "ReLU"
  bottom: "InnerProduct87"
  top: "InnerProduct87"
}
layer {
  name: "InnerProduct88"
  type: "InnerProduct"
  bottom: "InnerProduct87"
  top: "InnerProduct88"
  param {
    name: "w_trans0"
    lr_mult: 1
    decay_mult: 1
  }
  param {
    name: "b_trans0"
    lr_mult: 2
    decay_mult: 0
  }
  inner_product_param {
    num_output: 128
    weight_filler {
      type: "gaussian"
      std: 0.0098765
    }
    bias_filler {
      type: "constant"
      value: 0
    }
  }
}
layer {
  name: "ReLU88"
  type: "ReLU"
  bottom: "InnerProduct88"
  top: "InnerProduct88"
}
layer {
  name: "InnerProduct89"
  type: "InnerProduct"
  bottom: "InnerProduct88"
  top: "InnerProduct89"
  param {
    name: "w_trans0"
    lr_mult: 1
    decay_mult: 1
  }
  param {
    name: "b_trans0"
    lr_mult: 2
    decay_mult: 0
  }
  inner_product_param {
    num_output: 128
    weight_filler {
      type: "gaussian"
      std: 0.0098765
    }
    bias_filler {
      type: "constant"
      value: 0
    }
  }
}
layer {
  name: "ReLU89"
  type: "ReLU"
  bottom: "InnerProduct89"
  top: "InnerProduct89"
}
layer {
  name: "InnerProduct90"
  type: "InnerProduct"
  bottom: "InnerProduct89"
  top: "InnerProduct90"
  param {
    name: "w_e"
    lr_mult: 1
    decay_mult: 1
  }
  param {
    name: "b_e"
    lr_mult: 2
    decay_mult: 0
  }
  inner_product_param {
    num_output: 2
    weight_filler {
      type: "gaussian"
      std: 0.0098765
    }
    bias_filler {
      type: "constant"
      value: 0
    }
  }
}
layer {
  name: "ReLU90"
  type: "ReLU"
  bottom: "InnerProduct90"
  top: "InnerProduct90"
}
layer {
  name: "InnerProduct91"
  type: "InnerProduct"
  bottom: "Slice19"
  top: "InnerProduct91"
  param {
    name: "w_s"
    lr_mult: 1
    decay_mult: 1
  }
  param {
    name: "b_s"
    lr_mult: 2
    decay_mult: 0
  }
  inner_product_param {
    num_output: 128
    weight_filler {
      type: "gaussian"
      std: 0.0098765
    }
    bias_filler {
      type: "constant"
      value: 0
    }
  }
}
layer {
  name: "ReLU91"
  type: "ReLU"
  bottom: "InnerProduct91"
  top: "InnerProduct91"
}
layer {
  name: "InnerProduct92"
  type: "InnerProduct"
  bottom: "InnerProduct91"
  top: "InnerProduct92"
  param {
    name: "w_trans0"
    lr_mult: 1
    decay_mult: 1
  }
  param {
    name: "b_trans0"
    lr_mult: 2
    decay_mult: 0
  }
  inner_product_param {
    num_output: 128
    weight_filler {
      type: "gaussian"
      std: 0.0098765
    }
    bias_filler {
      type: "constant"
      value: 0
    }
  }
}
layer {
  name: "ReLU92"
  type: "ReLU"
  bottom: "InnerProduct92"
  top: "InnerProduct92"
}
layer {
  name: "InnerProduct93"
  type: "InnerProduct"
  bottom: "InnerProduct92"
  top: "InnerProduct93"
  param {
    name: "w_trans0"
    lr_mult: 1
    decay_mult: 1
  }
  param {
    name: "b_trans0"
    lr_mult: 2
    decay_mult: 0
  }
  inner_product_param {
    num_output: 128
    weight_filler {
      type: "gaussian"
      std: 0.0098765
    }
    bias_filler {
      type: "constant"
      value: 0
    }
  }
}
layer {
  name: "ReLU93"
  type: "ReLU"
  bottom: "InnerProduct93"
  top: "InnerProduct93"
}
layer {
  name: "InnerProduct94"
  type: "InnerProduct"
  bottom: "InnerProduct93"
  top: "InnerProduct94"
  param {
    name: "w_trans0"
    lr_mult: 1
    decay_mult: 1
  }
  param {
    name: "b_trans0"
    lr_mult: 2
    decay_mult: 0
  }
  inner_product_param {
    num_output: 128
    weight_filler {
      type: "gaussian"
      std: 0.0098765
    }
    bias_filler {
      type: "constant"
      value: 0
    }
  }
}
layer {
  name: "ReLU94"
  type: "ReLU"
  bottom: "InnerProduct94"
  top: "InnerProduct94"
}
layer {
  name: "InnerProduct95"
  type: "InnerProduct"
  bottom: "InnerProduct94"
  top: "InnerProduct95"
  param {
    name: "w_e"
    lr_mult: 1
    decay_mult: 1
  }
  param {
    name: "b_e"
    lr_mult: 2
    decay_mult: 0
  }
  inner_product_param {
    num_output: 2
    weight_filler {
      type: "gaussian"
      std: 0.0098765
    }
    bias_filler {
      type: "constant"
      value: 0
    }
  }
}
layer {
  name: "ReLU95"
  type: "ReLU"
  bottom: "InnerProduct95"
  top: "InnerProduct95"
}
layer {
  name: "InnerProduct96"
  type: "InnerProduct"
  bottom: "Slice20"
  top: "InnerProduct96"
  param {
    name: "w_s"
    lr_mult: 1
    decay_mult: 1
  }
  param {
    name: "b_s"
    lr_mult: 2
    decay_mult: 0
  }
  inner_product_param {
    num_output: 128
    weight_filler {
      type: "gaussian"
      std: 0.0098765
    }
    bias_filler {
      type: "constant"
      value: 0
    }
  }
}
layer {
  name: "ReLU96"
  type: "ReLU"
  bottom: "InnerProduct96"
  top: "InnerProduct96"
}
layer {
  name: "InnerProduct97"
  type: "InnerProduct"
  bottom: "InnerProduct96"
  top: "InnerProduct97"
  param {
    name: "w_trans0"
    lr_mult: 1
    decay_mult: 1
  }
  param {
    name: "b_trans0"
    lr_mult: 2
    decay_mult: 0
  }
  inner_product_param {
    num_output: 128
    weight_filler {
      type: "gaussian"
      std: 0.0098765
    }
    bias_filler {
      type: "constant"
      value: 0
    }
  }
}
layer {
  name: "ReLU97"
  type: "ReLU"
  bottom: "InnerProduct97"
  top: "InnerProduct97"
}
layer {
  name: "InnerProduct98"
  type: "InnerProduct"
  bottom: "InnerProduct97"
  top: "InnerProduct98"
  param {
    name: "w_trans0"
    lr_mult: 1
    decay_mult: 1
  }
  param {
    name: "b_trans0"
    lr_mult: 2
    decay_mult: 0
  }
  inner_product_param {
    num_output: 128
    weight_filler {
      type: "gaussian"
      std: 0.0098765
    }
    bias_filler {
      type: "constant"
      value: 0
    }
  }
}
layer {
  name: "ReLU98"
  type: "ReLU"
  bottom: "InnerProduct98"
  top: "InnerProduct98"
}
layer {
  name: "InnerProduct99"
  type: "InnerProduct"
  bottom: "InnerProduct98"
  top: "InnerProduct99"
  param {
    name: "w_trans0"
    lr_mult: 1
    decay_mult: 1
  }
  param {
    name: "b_trans0"
    lr_mult: 2
    decay_mult: 0
  }
  inner_product_param {
    num_output: 128
    weight_filler {
      type: "gaussian"
      std: 0.0098765
    }
    bias_filler {
      type: "constant"
      value: 0
    }
  }
}
layer {
  name: "ReLU99"
  type: "ReLU"
  bottom: "InnerProduct99"
  top: "InnerProduct99"
}
layer {
  name: "InnerProduct100"
  type: "InnerProduct"
  bottom: "InnerProduct99"
  top: "InnerProduct100"
  param {
    name: "w_e"
    lr_mult: 1
    decay_mult: 1
  }
  param {
    name: "b_e"
    lr_mult: 2
    decay_mult: 0
  }
  inner_product_param {
    num_output: 2
    weight_filler {
      type: "gaussian"
      std: 0.0098765
    }
    bias_filler {
      type: "constant"
      value: 0
    }
  }
}
layer {
  name: "ReLU100"
  type: "ReLU"
  bottom: "InnerProduct100"
  top: "InnerProduct100"
}
layer {
  name: "InnerProduct101"
  type: "InnerProduct"
  bottom: "Slice21"
  top: "InnerProduct101"
  param {
    name: "w_s"
    lr_mult: 1
    decay_mult: 1
  }
  param {
    name: "b_s"
    lr_mult: 2
    decay_mult: 0
  }
  inner_product_param {
    num_output: 128
    weight_filler {
      type: "gaussian"
      std: 0.0098765
    }
    bias_filler {
      type: "constant"
      value: 0
    }
  }
}
layer {
  name: "ReLU101"
  type: "ReLU"
  bottom: "InnerProduct101"
  top: "InnerProduct101"
}
layer {
  name: "InnerProduct102"
  type: "InnerProduct"
  bottom: "InnerProduct101"
  top: "InnerProduct102"
  param {
    name: "w_trans0"
    lr_mult: 1
    decay_mult: 1
  }
  param {
    name: "b_trans0"
    lr_mult: 2
    decay_mult: 0
  }
  inner_product_param {
    num_output: 128
    weight_filler {
      type: "gaussian"
      std: 0.0098765
    }
    bias_filler {
      type: "constant"
      value: 0
    }
  }
}
layer {
  name: "ReLU102"
  type: "ReLU"
  bottom: "InnerProduct102"
  top: "InnerProduct102"
}
layer {
  name: "InnerProduct103"
  type: "InnerProduct"
  bottom: "InnerProduct102"
  top: "InnerProduct103"
  param {
    name: "w_trans0"
    lr_mult: 1
    decay_mult: 1
  }
  param {
    name: "b_trans0"
    lr_mult: 2
    decay_mult: 0
  }
  inner_product_param {
    num_output: 128
    weight_filler {
      type: "gaussian"
      std: 0.0098765
    }
    bias_filler {
      type: "constant"
      value: 0
    }
  }
}
layer {
  name: "ReLU103"
  type: "ReLU"
  bottom: "InnerProduct103"
  top: "InnerProduct103"
}
layer {
  name: "InnerProduct104"
  type: "InnerProduct"
  bottom: "InnerProduct103"
  top: "InnerProduct104"
  param {
    name: "w_trans0"
    lr_mult: 1
    decay_mult: 1
  }
  param {
    name: "b_trans0"
    lr_mult: 2
    decay_mult: 0
  }
  inner_product_param {
    num_output: 128
    weight_filler {
      type: "gaussian"
      std: 0.0098765
    }
    bias_filler {
      type: "constant"
      value: 0
    }
  }
}
layer {
  name: "ReLU104"
  type: "ReLU"
  bottom: "InnerProduct104"
  top: "InnerProduct104"
}
layer {
  name: "InnerProduct105"
  type: "InnerProduct"
  bottom: "InnerProduct104"
  top: "InnerProduct105"
  param {
    name: "w_e"
    lr_mult: 1
    decay_mult: 1
  }
  param {
    name: "b_e"
    lr_mult: 2
    decay_mult: 0
  }
  inner_product_param {
    num_output: 2
    weight_filler {
      type: "gaussian"
      std: 0.0098765
    }
    bias_filler {
      type: "constant"
      value: 0
    }
  }
}
layer {
  name: "ReLU105"
  type: "ReLU"
  bottom: "InnerProduct105"
  top: "InnerProduct105"
}
layer {
  name: "InnerProduct106"
  type: "InnerProduct"
  bottom: "Slice22"
  top: "InnerProduct106"
  param {
    name: "w_s"
    lr_mult: 1
    decay_mult: 1
  }
  param {
    name: "b_s"
    lr_mult: 2
    decay_mult: 0
  }
  inner_product_param {
    num_output: 128
    weight_filler {
      type: "gaussian"
      std: 0.0098765
    }
    bias_filler {
      type: "constant"
      value: 0
    }
  }
}
layer {
  name: "ReLU106"
  type: "ReLU"
  bottom: "InnerProduct106"
  top: "InnerProduct106"
}
layer {
  name: "InnerProduct107"
  type: "InnerProduct"
  bottom: "InnerProduct106"
  top: "InnerProduct107"
  param {
    name: "w_trans0"
    lr_mult: 1
    decay_mult: 1
  }
  param {
    name: "b_trans0"
    lr_mult: 2
    decay_mult: 0
  }
  inner_product_param {
    num_output: 128
    weight_filler {
      type: "gaussian"
      std: 0.0098765
    }
    bias_filler {
      type: "constant"
      value: 0
    }
  }
}
layer {
  name: "ReLU107"
  type: "ReLU"
  bottom: "InnerProduct107"
  top: "InnerProduct107"
}
layer {
  name: "InnerProduct108"
  type: "InnerProduct"
  bottom: "InnerProduct107"
  top: "InnerProduct108"
  param {
    name: "w_trans0"
    lr_mult: 1
    decay_mult: 1
  }
  param {
    name: "b_trans0"
    lr_mult: 2
    decay_mult: 0
  }
  inner_product_param {
    num_output: 128
    weight_filler {
      type: "gaussian"
      std: 0.0098765
    }
    bias_filler {
      type: "constant"
      value: 0
    }
  }
}
layer {
  name: "ReLU108"
  type: "ReLU"
  bottom: "InnerProduct108"
  top: "InnerProduct108"
}
layer {
  name: "InnerProduct109"
  type: "InnerProduct"
  bottom: "InnerProduct108"
  top: "InnerProduct109"
  param {
    name: "w_trans0"
    lr_mult: 1
    decay_mult: 1
  }
  param {
    name: "b_trans0"
    lr_mult: 2
    decay_mult: 0
  }
  inner_product_param {
    num_output: 128
    weight_filler {
      type: "gaussian"
      std: 0.0098765
    }
    bias_filler {
      type: "constant"
      value: 0
    }
  }
}
layer {
  name: "ReLU109"
  type: "ReLU"
  bottom: "InnerProduct109"
  top: "InnerProduct109"
}
layer {
  name: "InnerProduct110"
  type: "InnerProduct"
  bottom: "InnerProduct109"
  top: "InnerProduct110"
  param {
    name: "w_e"
    lr_mult: 1
    decay_mult: 1
  }
  param {
    name: "b_e"
    lr_mult: 2
    decay_mult: 0
  }
  inner_product_param {
    num_output: 2
    weight_filler {
      type: "gaussian"
      std: 0.0098765
    }
    bias_filler {
      type: "constant"
      value: 0
    }
  }
}
layer {
  name: "ReLU110"
  type: "ReLU"
  bottom: "InnerProduct110"
  top: "InnerProduct110"
}
layer {
  name: "InnerProduct111"
  type: "InnerProduct"
  bottom: "Slice23"
  top: "InnerProduct111"
  param {
    name: "w_s"
    lr_mult: 1
    decay_mult: 1
  }
  param {
    name: "b_s"
    lr_mult: 2
    decay_mult: 0
  }
  inner_product_param {
    num_output: 128
    weight_filler {
      type: "gaussian"
      std: 0.0098765
    }
    bias_filler {
      type: "constant"
      value: 0
    }
  }
}
layer {
  name: "ReLU111"
  type: "ReLU"
  bottom: "InnerProduct111"
  top: "InnerProduct111"
}
layer {
  name: "InnerProduct112"
  type: "InnerProduct"
  bottom: "InnerProduct111"
  top: "InnerProduct112"
  param {
    name: "w_trans0"
    lr_mult: 1
    decay_mult: 1
  }
  param {
    name: "b_trans0"
    lr_mult: 2
    decay_mult: 0
  }
  inner_product_param {
    num_output: 128
    weight_filler {
      type: "gaussian"
      std: 0.0098765
    }
    bias_filler {
      type: "constant"
      value: 0
    }
  }
}
layer {
  name: "ReLU112"
  type: "ReLU"
  bottom: "InnerProduct112"
  top: "InnerProduct112"
}
layer {
  name: "InnerProduct113"
  type: "InnerProduct"
  bottom: "InnerProduct112"
  top: "InnerProduct113"
  param {
    name: "w_trans0"
    lr_mult: 1
    decay_mult: 1
  }
  param {
    name: "b_trans0"
    lr_mult: 2
    decay_mult: 0
  }
  inner_product_param {
    num_output: 128
    weight_filler {
      type: "gaussian"
      std: 0.0098765
    }
    bias_filler {
      type: "constant"
      value: 0
    }
  }
}
layer {
  name: "ReLU113"
  type: "ReLU"
  bottom: "InnerProduct113"
  top: "InnerProduct113"
}
layer {
  name: "InnerProduct114"
  type: "InnerProduct"
  bottom: "InnerProduct113"
  top: "InnerProduct114"
  param {
    name: "w_trans0"
    lr_mult: 1
    decay_mult: 1
  }
  param {
    name: "b_trans0"
    lr_mult: 2
    decay_mult: 0
  }
  inner_product_param {
    num_output: 128
    weight_filler {
      type: "gaussian"
      std: 0.0098765
    }
    bias_filler {
      type: "constant"
      value: 0
    }
  }
}
layer {
  name: "ReLU114"
  type: "ReLU"
  bottom: "InnerProduct114"
  top: "InnerProduct114"
}
layer {
  name: "InnerProduct115"
  type: "InnerProduct"
  bottom: "InnerProduct114"
  top: "InnerProduct115"
  param {
    name: "w_e"
    lr_mult: 1
    decay_mult: 1
  }
  param {
    name: "b_e"
    lr_mult: 2
    decay_mult: 0
  }
  inner_product_param {
    num_output: 2
    weight_filler {
      type: "gaussian"
      std: 0.0098765
    }
    bias_filler {
      type: "constant"
      value: 0
    }
  }
}
layer {
  name: "ReLU115"
  type: "ReLU"
  bottom: "InnerProduct115"
  top: "InnerProduct115"
}
layer {
  name: "InnerProduct116"
  type: "InnerProduct"
  bottom: "Slice24"
  top: "InnerProduct116"
  param {
    name: "w_s"
    lr_mult: 1
    decay_mult: 1
  }
  param {
    name: "b_s"
    lr_mult: 2
    decay_mult: 0
  }
  inner_product_param {
    num_output: 128
    weight_filler {
      type: "gaussian"
      std: 0.0098765
    }
    bias_filler {
      type: "constant"
      value: 0
    }
  }
}
layer {
  name: "ReLU116"
  type: "ReLU"
  bottom: "InnerProduct116"
  top: "InnerProduct116"
}
layer {
  name: "InnerProduct117"
  type: "InnerProduct"
  bottom: "InnerProduct116"
  top: "InnerProduct117"
  param {
    name: "w_trans0"
    lr_mult: 1
    decay_mult: 1
  }
  param {
    name: "b_trans0"
    lr_mult: 2
    decay_mult: 0
  }
  inner_product_param {
    num_output: 128
    weight_filler {
      type: "gaussian"
      std: 0.0098765
    }
    bias_filler {
      type: "constant"
      value: 0
    }
  }
}
layer {
  name: "ReLU117"
  type: "ReLU"
  bottom: "InnerProduct117"
  top: "InnerProduct117"
}
layer {
  name: "InnerProduct118"
  type: "InnerProduct"
  bottom: "InnerProduct117"
  top: "InnerProduct118"
  param {
    name: "w_trans0"
    lr_mult: 1
    decay_mult: 1
  }
  param {
    name: "b_trans0"
    lr_mult: 2
    decay_mult: 0
  }
  inner_product_param {
    num_output: 128
    weight_filler {
      type: "gaussian"
      std: 0.0098765
    }
    bias_filler {
      type: "constant"
      value: 0
    }
  }
}
layer {
  name: "ReLU118"
  type: "ReLU"
  bottom: "InnerProduct118"
  top: "InnerProduct118"
}
layer {
  name: "InnerProduct119"
  type: "InnerProduct"
  bottom: "InnerProduct118"
  top: "InnerProduct119"
  param {
    name: "w_trans0"
    lr_mult: 1
    decay_mult: 1
  }
  param {
    name: "b_trans0"
    lr_mult: 2
    decay_mult: 0
  }
  inner_product_param {
    num_output: 128
    weight_filler {
      type: "gaussian"
      std: 0.0098765
    }
    bias_filler {
      type: "constant"
      value: 0
    }
  }
}
layer {
  name: "ReLU119"
  type: "ReLU"
  bottom: "InnerProduct119"
  top: "InnerProduct119"
}
layer {
  name: "InnerProduct120"
  type: "InnerProduct"
  bottom: "InnerProduct119"
  top: "InnerProduct120"
  param {
    name: "w_e"
    lr_mult: 1
    decay_mult: 1
  }
  param {
    name: "b_e"
    lr_mult: 2
    decay_mult: 0
  }
  inner_product_param {
    num_output: 2
    weight_filler {
      type: "gaussian"
      std: 0.0098765
    }
    bias_filler {
      type: "constant"
      value: 0
    }
  }
}
layer {
  name: "ReLU120"
  type: "ReLU"
  bottom: "InnerProduct120"
  top: "InnerProduct120"
}
layer {
  name: "InnerProduct121"
  type: "InnerProduct"
  bottom: "Slice25"
  top: "InnerProduct121"
  param {
    name: "w_s"
    lr_mult: 1
    decay_mult: 1
  }
  param {
    name: "b_s"
    lr_mult: 2
    decay_mult: 0
  }
  inner_product_param {
    num_output: 128
    weight_filler {
      type: "gaussian"
      std: 0.0098765
    }
    bias_filler {
      type: "constant"
      value: 0
    }
  }
}
layer {
  name: "ReLU121"
  type: "ReLU"
  bottom: "InnerProduct121"
  top: "InnerProduct121"
}
layer {
  name: "InnerProduct122"
  type: "InnerProduct"
  bottom: "InnerProduct121"
  top: "InnerProduct122"
  param {
    name: "w_trans0"
    lr_mult: 1
    decay_mult: 1
  }
  param {
    name: "b_trans0"
    lr_mult: 2
    decay_mult: 0
  }
  inner_product_param {
    num_output: 128
    weight_filler {
      type: "gaussian"
      std: 0.0098765
    }
    bias_filler {
      type: "constant"
      value: 0
    }
  }
}
layer {
  name: "ReLU122"
  type: "ReLU"
  bottom: "InnerProduct122"
  top: "InnerProduct122"
}
layer {
  name: "InnerProduct123"
  type: "InnerProduct"
  bottom: "InnerProduct122"
  top: "InnerProduct123"
  param {
    name: "w_trans0"
    lr_mult: 1
    decay_mult: 1
  }
  param {
    name: "b_trans0"
    lr_mult: 2
    decay_mult: 0
  }
  inner_product_param {
    num_output: 128
    weight_filler {
      type: "gaussian"
      std: 0.0098765
    }
    bias_filler {
      type: "constant"
      value: 0
    }
  }
}
layer {
  name: "ReLU123"
  type: "ReLU"
  bottom: "InnerProduct123"
  top: "InnerProduct123"
}
layer {
  name: "InnerProduct124"
  type: "InnerProduct"
  bottom: "InnerProduct123"
  top: "InnerProduct124"
  param {
    name: "w_trans0"
    lr_mult: 1
    decay_mult: 1
  }
  param {
    name: "b_trans0"
    lr_mult: 2
    decay_mult: 0
  }
  inner_product_param {
    num_output: 128
    weight_filler {
      type: "gaussian"
      std: 0.0098765
    }
    bias_filler {
      type: "constant"
      value: 0
    }
  }
}
layer {
  name: "ReLU124"
  type: "ReLU"
  bottom: "InnerProduct124"
  top: "InnerProduct124"
}
layer {
  name: "InnerProduct125"
  type: "InnerProduct"
  bottom: "InnerProduct124"
  top: "InnerProduct125"
  param {
    name: "w_e"
    lr_mult: 1
    decay_mult: 1
  }
  param {
    name: "b_e"
    lr_mult: 2
    decay_mult: 0
  }
  inner_product_param {
    num_output: 2
    weight_filler {
      type: "gaussian"
      std: 0.0098765
    }
    bias_filler {
      type: "constant"
      value: 0
    }
  }
}
layer {
  name: "ReLU125"
  type: "ReLU"
  bottom: "InnerProduct125"
  top: "InnerProduct125"
}
layer {
  name: "InnerProduct126"
  type: "InnerProduct"
  bottom: "Slice26"
  top: "InnerProduct126"
  param {
    name: "w_s"
    lr_mult: 1
    decay_mult: 1
  }
  param {
    name: "b_s"
    lr_mult: 2
    decay_mult: 0
  }
  inner_product_param {
    num_output: 128
    weight_filler {
      type: "gaussian"
      std: 0.0098765
    }
    bias_filler {
      type: "constant"
      value: 0
    }
  }
}
layer {
  name: "ReLU126"
  type: "ReLU"
  bottom: "InnerProduct126"
  top: "InnerProduct126"
}
layer {
  name: "InnerProduct127"
  type: "InnerProduct"
  bottom: "InnerProduct126"
  top: "InnerProduct127"
  param {
    name: "w_trans0"
    lr_mult: 1
    decay_mult: 1
  }
  param {
    name: "b_trans0"
    lr_mult: 2
    decay_mult: 0
  }
  inner_product_param {
    num_output: 128
    weight_filler {
      type: "gaussian"
      std: 0.0098765
    }
    bias_filler {
      type: "constant"
      value: 0
    }
  }
}
layer {
  name: "ReLU127"
  type: "ReLU"
  bottom: "InnerProduct127"
  top: "InnerProduct127"
}
layer {
  name: "InnerProduct128"
  type: "InnerProduct"
  bottom: "InnerProduct127"
  top: "InnerProduct128"
  param {
    name: "w_trans0"
    lr_mult: 1
    decay_mult: 1
  }
  param {
    name: "b_trans0"
    lr_mult: 2
    decay_mult: 0
  }
  inner_product_param {
    num_output: 128
    weight_filler {
      type: "gaussian"
      std: 0.0098765
    }
    bias_filler {
      type: "constant"
      value: 0
    }
  }
}
layer {
  name: "ReLU128"
  type: "ReLU"
  bottom: "InnerProduct128"
  top: "InnerProduct128"
}
layer {
  name: "InnerProduct129"
  type: "InnerProduct"
  bottom: "InnerProduct128"
  top: "InnerProduct129"
  param {
    name: "w_trans0"
    lr_mult: 1
    decay_mult: 1
  }
  param {
    name: "b_trans0"
    lr_mult: 2
    decay_mult: 0
  }
  inner_product_param {
    num_output: 128
    weight_filler {
      type: "gaussian"
      std: 0.0098765
    }
    bias_filler {
      type: "constant"
      value: 0
    }
  }
}
layer {
  name: "ReLU129"
  type: "ReLU"
  bottom: "InnerProduct129"
  top: "InnerProduct129"
}
layer {
  name: "InnerProduct130"
  type: "InnerProduct"
  bottom: "InnerProduct129"
  top: "InnerProduct130"
  param {
    name: "w_e"
    lr_mult: 1
    decay_mult: 1
  }
  param {
    name: "b_e"
    lr_mult: 2
    decay_mult: 0
  }
  inner_product_param {
    num_output: 2
    weight_filler {
      type: "gaussian"
      std: 0.0098765
    }
    bias_filler {
      type: "constant"
      value: 0
    }
  }
}
layer {
  name: "ReLU130"
  type: "ReLU"
  bottom: "InnerProduct130"
  top: "InnerProduct130"
}
layer {
  name: "InnerProduct131"
  type: "InnerProduct"
  bottom: "Slice27"
  top: "InnerProduct131"
  param {
    name: "w_s"
    lr_mult: 1
    decay_mult: 1
  }
  param {
    name: "b_s"
    lr_mult: 2
    decay_mult: 0
  }
  inner_product_param {
    num_output: 128
    weight_filler {
      type: "gaussian"
      std: 0.0098765
    }
    bias_filler {
      type: "constant"
      value: 0
    }
  }
}
layer {
  name: "ReLU131"
  type: "ReLU"
  bottom: "InnerProduct131"
  top: "InnerProduct131"
}
layer {
  name: "InnerProduct132"
  type: "InnerProduct"
  bottom: "InnerProduct131"
  top: "InnerProduct132"
  param {
    name: "w_trans0"
    lr_mult: 1
    decay_mult: 1
  }
  param {
    name: "b_trans0"
    lr_mult: 2
    decay_mult: 0
  }
  inner_product_param {
    num_output: 128
    weight_filler {
      type: "gaussian"
      std: 0.0098765
    }
    bias_filler {
      type: "constant"
      value: 0
    }
  }
}
layer {
  name: "ReLU132"
  type: "ReLU"
  bottom: "InnerProduct132"
  top: "InnerProduct132"
}
layer {
  name: "InnerProduct133"
  type: "InnerProduct"
  bottom: "InnerProduct132"
  top: "InnerProduct133"
  param {
    name: "w_trans0"
    lr_mult: 1
    decay_mult: 1
  }
  param {
    name: "b_trans0"
    lr_mult: 2
    decay_mult: 0
  }
  inner_product_param {
    num_output: 128
    weight_filler {
      type: "gaussian"
      std: 0.0098765
    }
    bias_filler {
      type: "constant"
      value: 0
    }
  }
}
layer {
  name: "ReLU133"
  type: "ReLU"
  bottom: "InnerProduct133"
  top: "InnerProduct133"
}
layer {
  name: "InnerProduct134"
  type: "InnerProduct"
  bottom: "InnerProduct133"
  top: "InnerProduct134"
  param {
    name: "w_trans0"
    lr_mult: 1
    decay_mult: 1
  }
  param {
    name: "b_trans0"
    lr_mult: 2
    decay_mult: 0
  }
  inner_product_param {
    num_output: 128
    weight_filler {
      type: "gaussian"
      std: 0.0098765
    }
    bias_filler {
      type: "constant"
      value: 0
    }
  }
}
layer {
  name: "ReLU134"
  type: "ReLU"
  bottom: "InnerProduct134"
  top: "InnerProduct134"
}
layer {
  name: "InnerProduct135"
  type: "InnerProduct"
  bottom: "InnerProduct134"
  top: "InnerProduct135"
  param {
    name: "w_e"
    lr_mult: 1
    decay_mult: 1
  }
  param {
    name: "b_e"
    lr_mult: 2
    decay_mult: 0
  }
  inner_product_param {
    num_output: 2
    weight_filler {
      type: "gaussian"
      std: 0.0098765
    }
    bias_filler {
      type: "constant"
      value: 0
    }
  }
}
layer {
  name: "ReLU135"
  type: "ReLU"
  bottom: "InnerProduct135"
  top: "InnerProduct135"
}
layer {
  name: "InnerProduct136"
  type: "InnerProduct"
  bottom: "Slice28"
  top: "InnerProduct136"
  param {
    name: "w_s"
    lr_mult: 1
    decay_mult: 1
  }
  param {
    name: "b_s"
    lr_mult: 2
    decay_mult: 0
  }
  inner_product_param {
    num_output: 128
    weight_filler {
      type: "gaussian"
      std: 0.0098765
    }
    bias_filler {
      type: "constant"
      value: 0
    }
  }
}
layer {
  name: "ReLU136"
  type: "ReLU"
  bottom: "InnerProduct136"
  top: "InnerProduct136"
}
layer {
  name: "InnerProduct137"
  type: "InnerProduct"
  bottom: "InnerProduct136"
  top: "InnerProduct137"
  param {
    name: "w_trans0"
    lr_mult: 1
    decay_mult: 1
  }
  param {
    name: "b_trans0"
    lr_mult: 2
    decay_mult: 0
  }
  inner_product_param {
    num_output: 128
    weight_filler {
      type: "gaussian"
      std: 0.0098765
    }
    bias_filler {
      type: "constant"
      value: 0
    }
  }
}
layer {
  name: "ReLU137"
  type: "ReLU"
  bottom: "InnerProduct137"
  top: "InnerProduct137"
}
layer {
  name: "InnerProduct138"
  type: "InnerProduct"
  bottom: "InnerProduct137"
  top: "InnerProduct138"
  param {
    name: "w_trans0"
    lr_mult: 1
    decay_mult: 1
  }
  param {
    name: "b_trans0"
    lr_mult: 2
    decay_mult: 0
  }
  inner_product_param {
    num_output: 128
    weight_filler {
      type: "gaussian"
      std: 0.0098765
    }
    bias_filler {
      type: "constant"
      value: 0
    }
  }
}
layer {
  name: "ReLU138"
  type: "ReLU"
  bottom: "InnerProduct138"
  top: "InnerProduct138"
}
layer {
  name: "InnerProduct139"
  type: "InnerProduct"
  bottom: "InnerProduct138"
  top: "InnerProduct139"
  param {
    name: "w_trans0"
    lr_mult: 1
    decay_mult: 1
  }
  param {
    name: "b_trans0"
    lr_mult: 2
    decay_mult: 0
  }
  inner_product_param {
    num_output: 128
    weight_filler {
      type: "gaussian"
      std: 0.0098765
    }
    bias_filler {
      type: "constant"
      value: 0
    }
  }
}
layer {
  name: "ReLU139"
  type: "ReLU"
  bottom: "InnerProduct139"
  top: "InnerProduct139"
}
layer {
  name: "InnerProduct140"
  type: "InnerProduct"
  bottom: "InnerProduct139"
  top: "InnerProduct140"
  param {
    name: "w_e"
    lr_mult: 1
    decay_mult: 1
  }
  param {
    name: "b_e"
    lr_mult: 2
    decay_mult: 0
  }
  inner_product_param {
    num_output: 2
    weight_filler {
      type: "gaussian"
      std: 0.0098765
    }
    bias_filler {
      type: "constant"
      value: 0
    }
  }
}
layer {
  name: "ReLU140"
  type: "ReLU"
  bottom: "InnerProduct140"
  top: "InnerProduct140"
}
layer {
  name: "InnerProduct141"
  type: "InnerProduct"
  bottom: "Slice29"
  top: "InnerProduct141"
  param {
    name: "w_s"
    lr_mult: 1
    decay_mult: 1
  }
  param {
    name: "b_s"
    lr_mult: 2
    decay_mult: 0
  }
  inner_product_param {
    num_output: 128
    weight_filler {
      type: "gaussian"
      std: 0.0098765
    }
    bias_filler {
      type: "constant"
      value: 0
    }
  }
}
layer {
  name: "ReLU141"
  type: "ReLU"
  bottom: "InnerProduct141"
  top: "InnerProduct141"
}
layer {
  name: "InnerProduct142"
  type: "InnerProduct"
  bottom: "InnerProduct141"
  top: "InnerProduct142"
  param {
    name: "w_trans0"
    lr_mult: 1
    decay_mult: 1
  }
  param {
    name: "b_trans0"
    lr_mult: 2
    decay_mult: 0
  }
  inner_product_param {
    num_output: 128
    weight_filler {
      type: "gaussian"
      std: 0.0098765
    }
    bias_filler {
      type: "constant"
      value: 0
    }
  }
}
layer {
  name: "ReLU142"
  type: "ReLU"
  bottom: "InnerProduct142"
  top: "InnerProduct142"
}
layer {
  name: "InnerProduct143"
  type: "InnerProduct"
  bottom: "InnerProduct142"
  top: "InnerProduct143"
  param {
    name: "w_trans0"
    lr_mult: 1
    decay_mult: 1
  }
  param {
    name: "b_trans0"
    lr_mult: 2
    decay_mult: 0
  }
  inner_product_param {
    num_output: 128
    weight_filler {
      type: "gaussian"
      std: 0.0098765
    }
    bias_filler {
      type: "constant"
      value: 0
    }
  }
}
layer {
  name: "ReLU143"
  type: "ReLU"
  bottom: "InnerProduct143"
  top: "InnerProduct143"
}
layer {
  name: "InnerProduct144"
  type: "InnerProduct"
  bottom: "InnerProduct143"
  top: "InnerProduct144"
  param {
    name: "w_trans0"
    lr_mult: 1
    decay_mult: 1
  }
  param {
    name: "b_trans0"
    lr_mult: 2
    decay_mult: 0
  }
  inner_product_param {
    num_output: 128
    weight_filler {
      type: "gaussian"
      std: 0.0098765
    }
    bias_filler {
      type: "constant"
      value: 0
    }
  }
}
layer {
  name: "ReLU144"
  type: "ReLU"
  bottom: "InnerProduct144"
  top: "InnerProduct144"
}
layer {
  name: "InnerProduct145"
  type: "InnerProduct"
  bottom: "InnerProduct144"
  top: "InnerProduct145"
  param {
    name: "w_e"
    lr_mult: 1
    decay_mult: 1
  }
  param {
    name: "b_e"
    lr_mult: 2
    decay_mult: 0
  }
  inner_product_param {
    num_output: 2
    weight_filler {
      type: "gaussian"
      std: 0.0098765
    }
    bias_filler {
      type: "constant"
      value: 0
    }
  }
}
layer {
  name: "ReLU145"
  type: "ReLU"
  bottom: "InnerProduct145"
  top: "InnerProduct145"
}
layer {
  name: "InnerProduct146"
  type: "InnerProduct"
  bottom: "Slice30"
  top: "InnerProduct146"
  param {
    name: "w_s"
    lr_mult: 1
    decay_mult: 1
  }
  param {
    name: "b_s"
    lr_mult: 2
    decay_mult: 0
  }
  inner_product_param {
    num_output: 128
    weight_filler {
      type: "gaussian"
      std: 0.0098765
    }
    bias_filler {
      type: "constant"
      value: 0
    }
  }
}
layer {
  name: "ReLU146"
  type: "ReLU"
  bottom: "InnerProduct146"
  top: "InnerProduct146"
}
layer {
  name: "InnerProduct147"
  type: "InnerProduct"
  bottom: "InnerProduct146"
  top: "InnerProduct147"
  param {
    name: "w_trans0"
    lr_mult: 1
    decay_mult: 1
  }
  param {
    name: "b_trans0"
    lr_mult: 2
    decay_mult: 0
  }
  inner_product_param {
    num_output: 128
    weight_filler {
      type: "gaussian"
      std: 0.0098765
    }
    bias_filler {
      type: "constant"
      value: 0
    }
  }
}
layer {
  name: "ReLU147"
  type: "ReLU"
  bottom: "InnerProduct147"
  top: "InnerProduct147"
}
layer {
  name: "InnerProduct148"
  type: "InnerProduct"
  bottom: "InnerProduct147"
  top: "InnerProduct148"
  param {
    name: "w_trans0"
    lr_mult: 1
    decay_mult: 1
  }
  param {
    name: "b_trans0"
    lr_mult: 2
    decay_mult: 0
  }
  inner_product_param {
    num_output: 128
    weight_filler {
      type: "gaussian"
      std: 0.0098765
    }
    bias_filler {
      type: "constant"
      value: 0
    }
  }
}
layer {
  name: "ReLU148"
  type: "ReLU"
  bottom: "InnerProduct148"
  top: "InnerProduct148"
}
layer {
  name: "InnerProduct149"
  type: "InnerProduct"
  bottom: "InnerProduct148"
  top: "InnerProduct149"
  param {
    name: "w_trans0"
    lr_mult: 1
    decay_mult: 1
  }
  param {
    name: "b_trans0"
    lr_mult: 2
    decay_mult: 0
  }
  inner_product_param {
    num_output: 128
    weight_filler {
      type: "gaussian"
      std: 0.0098765
    }
    bias_filler {
      type: "constant"
      value: 0
    }
  }
}
layer {
  name: "ReLU149"
  type: "ReLU"
  bottom: "InnerProduct149"
  top: "InnerProduct149"
}
layer {
  name: "InnerProduct150"
  type: "InnerProduct"
  bottom: "InnerProduct149"
  top: "InnerProduct150"
  param {
    name: "w_e"
    lr_mult: 1
    decay_mult: 1
  }
  param {
    name: "b_e"
    lr_mult: 2
    decay_mult: 0
  }
  inner_product_param {
    num_output: 2
    weight_filler {
      type: "gaussian"
      std: 0.0098765
    }
    bias_filler {
      type: "constant"
      value: 0
    }
  }
}
layer {
  name: "ReLU150"
  type: "ReLU"
  bottom: "InnerProduct150"
  top: "InnerProduct150"
}
layer {
  name: "InnerProduct151"
  type: "InnerProduct"
  bottom: "Slice31"
  top: "InnerProduct151"
  param {
    name: "w_s"
    lr_mult: 1
    decay_mult: 1
  }
  param {
    name: "b_s"
    lr_mult: 2
    decay_mult: 0
  }
  inner_product_param {
    num_output: 128
    weight_filler {
      type: "gaussian"
      std: 0.0098765
    }
    bias_filler {
      type: "constant"
      value: 0
    }
  }
}
layer {
  name: "ReLU151"
  type: "ReLU"
  bottom: "InnerProduct151"
  top: "InnerProduct151"
}
layer {
  name: "InnerProduct152"
  type: "InnerProduct"
  bottom: "InnerProduct151"
  top: "InnerProduct152"
  param {
    name: "w_trans0"
    lr_mult: 1
    decay_mult: 1
  }
  param {
    name: "b_trans0"
    lr_mult: 2
    decay_mult: 0
  }
  inner_product_param {
    num_output: 128
    weight_filler {
      type: "gaussian"
      std: 0.0098765
    }
    bias_filler {
      type: "constant"
      value: 0
    }
  }
}
layer {
  name: "ReLU152"
  type: "ReLU"
  bottom: "InnerProduct152"
  top: "InnerProduct152"
}
layer {
  name: "InnerProduct153"
  type: "InnerProduct"
  bottom: "InnerProduct152"
  top: "InnerProduct153"
  param {
    name: "w_trans0"
    lr_mult: 1
    decay_mult: 1
  }
  param {
    name: "b_trans0"
    lr_mult: 2
    decay_mult: 0
  }
  inner_product_param {
    num_output: 128
    weight_filler {
      type: "gaussian"
      std: 0.0098765
    }
    bias_filler {
      type: "constant"
      value: 0
    }
  }
}
layer {
  name: "ReLU153"
  type: "ReLU"
  bottom: "InnerProduct153"
  top: "InnerProduct153"
}
layer {
  name: "InnerProduct154"
  type: "InnerProduct"
  bottom: "InnerProduct153"
  top: "InnerProduct154"
  param {
    name: "w_trans0"
    lr_mult: 1
    decay_mult: 1
  }
  param {
    name: "b_trans0"
    lr_mult: 2
    decay_mult: 0
  }
  inner_product_param {
    num_output: 128
    weight_filler {
      type: "gaussian"
      std: 0.0098765
    }
    bias_filler {
      type: "constant"
      value: 0
    }
  }
}
layer {
  name: "ReLU154"
  type: "ReLU"
  bottom: "InnerProduct154"
  top: "InnerProduct154"
}
layer {
  name: "InnerProduct155"
  type: "InnerProduct"
  bottom: "InnerProduct154"
  top: "InnerProduct155"
  param {
    name: "w_e"
    lr_mult: 1
    decay_mult: 1
  }
  param {
    name: "b_e"
    lr_mult: 2
    decay_mult: 0
  }
  inner_product_param {
    num_output: 2
    weight_filler {
      type: "gaussian"
      std: 0.0098765
    }
    bias_filler {
      type: "constant"
      value: 0
    }
  }
}
layer {
  name: "ReLU155"
  type: "ReLU"
  bottom: "InnerProduct155"
  top: "InnerProduct155"
}
layer {
  name: "InnerProduct156"
  type: "InnerProduct"
  bottom: "Slice32"
  top: "InnerProduct156"
  param {
    name: "w_s"
    lr_mult: 1
    decay_mult: 1
  }
  param {
    name: "b_s"
    lr_mult: 2
    decay_mult: 0
  }
  inner_product_param {
    num_output: 128
    weight_filler {
      type: "gaussian"
      std: 0.0098765
    }
    bias_filler {
      type: "constant"
      value: 0
    }
  }
}
layer {
  name: "ReLU156"
  type: "ReLU"
  bottom: "InnerProduct156"
  top: "InnerProduct156"
}
layer {
  name: "InnerProduct157"
  type: "InnerProduct"
  bottom: "InnerProduct156"
  top: "InnerProduct157"
  param {
    name: "w_trans0"
    lr_mult: 1
    decay_mult: 1
  }
  param {
    name: "b_trans0"
    lr_mult: 2
    decay_mult: 0
  }
  inner_product_param {
    num_output: 128
    weight_filler {
      type: "gaussian"
      std: 0.0098765
    }
    bias_filler {
      type: "constant"
      value: 0
    }
  }
}
layer {
  name: "ReLU157"
  type: "ReLU"
  bottom: "InnerProduct157"
  top: "InnerProduct157"
}
layer {
  name: "InnerProduct158"
  type: "InnerProduct"
  bottom: "InnerProduct157"
  top: "InnerProduct158"
  param {
    name: "w_trans0"
    lr_mult: 1
    decay_mult: 1
  }
  param {
    name: "b_trans0"
    lr_mult: 2
    decay_mult: 0
  }
  inner_product_param {
    num_output: 128
    weight_filler {
      type: "gaussian"
      std: 0.0098765
    }
    bias_filler {
      type: "constant"
      value: 0
    }
  }
}
layer {
  name: "ReLU158"
  type: "ReLU"
  bottom: "InnerProduct158"
  top: "InnerProduct158"
}
layer {
  name: "InnerProduct159"
  type: "InnerProduct"
  bottom: "InnerProduct158"
  top: "InnerProduct159"
  param {
    name: "w_trans0"
    lr_mult: 1
    decay_mult: 1
  }
  param {
    name: "b_trans0"
    lr_mult: 2
    decay_mult: 0
  }
  inner_product_param {
    num_output: 128
    weight_filler {
      type: "gaussian"
      std: 0.0098765
    }
    bias_filler {
      type: "constant"
      value: 0
    }
  }
}
layer {
  name: "ReLU159"
  type: "ReLU"
  bottom: "InnerProduct159"
  top: "InnerProduct159"
}
layer {
  name: "InnerProduct160"
  type: "InnerProduct"
  bottom: "InnerProduct159"
  top: "InnerProduct160"
  param {
    name: "w_e"
    lr_mult: 1
    decay_mult: 1
  }
  param {
    name: "b_e"
    lr_mult: 2
    decay_mult: 0
  }
  inner_product_param {
    num_output: 2
    weight_filler {
      type: "gaussian"
      std: 0.0098765
    }
    bias_filler {
      type: "constant"
      value: 0
    }
  }
}
layer {
  name: "ReLU160"
  type: "ReLU"
  bottom: "InnerProduct160"
  top: "InnerProduct160"
}
layer {
  name: "InnerProduct161"
  type: "InnerProduct"
  bottom: "Slice33"
  top: "InnerProduct161"
  param {
    name: "w_s"
    lr_mult: 1
    decay_mult: 1
  }
  param {
    name: "b_s"
    lr_mult: 2
    decay_mult: 0
  }
  inner_product_param {
    num_output: 128
    weight_filler {
      type: "gaussian"
      std: 0.0098765
    }
    bias_filler {
      type: "constant"
      value: 0
    }
  }
}
layer {
  name: "ReLU161"
  type: "ReLU"
  bottom: "InnerProduct161"
  top: "InnerProduct161"
}
layer {
  name: "InnerProduct162"
  type: "InnerProduct"
  bottom: "InnerProduct161"
  top: "InnerProduct162"
  param {
    name: "w_trans0"
    lr_mult: 1
    decay_mult: 1
  }
  param {
    name: "b_trans0"
    lr_mult: 2
    decay_mult: 0
  }
  inner_product_param {
    num_output: 128
    weight_filler {
      type: "gaussian"
      std: 0.0098765
    }
    bias_filler {
      type: "constant"
      value: 0
    }
  }
}
layer {
  name: "ReLU162"
  type: "ReLU"
  bottom: "InnerProduct162"
  top: "InnerProduct162"
}
layer {
  name: "InnerProduct163"
  type: "InnerProduct"
  bottom: "InnerProduct162"
  top: "InnerProduct163"
  param {
    name: "w_trans0"
    lr_mult: 1
    decay_mult: 1
  }
  param {
    name: "b_trans0"
    lr_mult: 2
    decay_mult: 0
  }
  inner_product_param {
    num_output: 128
    weight_filler {
      type: "gaussian"
      std: 0.0098765
    }
    bias_filler {
      type: "constant"
      value: 0
    }
  }
}
layer {
  name: "ReLU163"
  type: "ReLU"
  bottom: "InnerProduct163"
  top: "InnerProduct163"
}
layer {
  name: "InnerProduct164"
  type: "InnerProduct"
  bottom: "InnerProduct163"
  top: "InnerProduct164"
  param {
    name: "w_trans0"
    lr_mult: 1
    decay_mult: 1
  }
  param {
    name: "b_trans0"
    lr_mult: 2
    decay_mult: 0
  }
  inner_product_param {
    num_output: 128
    weight_filler {
      type: "gaussian"
      std: 0.0098765
    }
    bias_filler {
      type: "constant"
      value: 0
    }
  }
}
layer {
  name: "ReLU164"
  type: "ReLU"
  bottom: "InnerProduct164"
  top: "InnerProduct164"
}
layer {
  name: "InnerProduct165"
  type: "InnerProduct"
  bottom: "InnerProduct164"
  top: "InnerProduct165"
  param {
    name: "w_e"
    lr_mult: 1
    decay_mult: 1
  }
  param {
    name: "b_e"
    lr_mult: 2
    decay_mult: 0
  }
  inner_product_param {
    num_output: 2
    weight_filler {
      type: "gaussian"
      std: 0.0098765
    }
    bias_filler {
      type: "constant"
      value: 0
    }
  }
}
layer {
  name: "ReLU165"
  type: "ReLU"
  bottom: "InnerProduct165"
  top: "InnerProduct165"
}
layer {
  name: "InnerProduct166"
  type: "InnerProduct"
  bottom: "Slice34"
  top: "InnerProduct166"
  param {
    name: "w_s"
    lr_mult: 1
    decay_mult: 1
  }
  param {
    name: "b_s"
    lr_mult: 2
    decay_mult: 0
  }
  inner_product_param {
    num_output: 128
    weight_filler {
      type: "gaussian"
      std: 0.0098765
    }
    bias_filler {
      type: "constant"
      value: 0
    }
  }
}
layer {
  name: "ReLU166"
  type: "ReLU"
  bottom: "InnerProduct166"
  top: "InnerProduct166"
}
layer {
  name: "InnerProduct167"
  type: "InnerProduct"
  bottom: "InnerProduct166"
  top: "InnerProduct167"
  param {
    name: "w_trans0"
    lr_mult: 1
    decay_mult: 1
  }
  param {
    name: "b_trans0"
    lr_mult: 2
    decay_mult: 0
  }
  inner_product_param {
    num_output: 128
    weight_filler {
      type: "gaussian"
      std: 0.0098765
    }
    bias_filler {
      type: "constant"
      value: 0
    }
  }
}
layer {
  name: "ReLU167"
  type: "ReLU"
  bottom: "InnerProduct167"
  top: "InnerProduct167"
}
layer {
  name: "InnerProduct168"
  type: "InnerProduct"
  bottom: "InnerProduct167"
  top: "InnerProduct168"
  param {
    name: "w_trans0"
    lr_mult: 1
    decay_mult: 1
  }
  param {
    name: "b_trans0"
    lr_mult: 2
    decay_mult: 0
  }
  inner_product_param {
    num_output: 128
    weight_filler {
      type: "gaussian"
      std: 0.0098765
    }
    bias_filler {
      type: "constant"
      value: 0
    }
  }
}
layer {
  name: "ReLU168"
  type: "ReLU"
  bottom: "InnerProduct168"
  top: "InnerProduct168"
}
layer {
  name: "InnerProduct169"
  type: "InnerProduct"
  bottom: "InnerProduct168"
  top: "InnerProduct169"
  param {
    name: "w_trans0"
    lr_mult: 1
    decay_mult: 1
  }
  param {
    name: "b_trans0"
    lr_mult: 2
    decay_mult: 0
  }
  inner_product_param {
    num_output: 128
    weight_filler {
      type: "gaussian"
      std: 0.0098765
    }
    bias_filler {
      type: "constant"
      value: 0
    }
  }
}
layer {
  name: "ReLU169"
  type: "ReLU"
  bottom: "InnerProduct169"
  top: "InnerProduct169"
}
layer {
  name: "InnerProduct170"
  type: "InnerProduct"
  bottom: "InnerProduct169"
  top: "InnerProduct170"
  param {
    name: "w_e"
    lr_mult: 1
    decay_mult: 1
  }
  param {
    name: "b_e"
    lr_mult: 2
    decay_mult: 0
  }
  inner_product_param {
    num_output: 2
    weight_filler {
      type: "gaussian"
      std: 0.0098765
    }
    bias_filler {
      type: "constant"
      value: 0
    }
  }
}
layer {
  name: "ReLU170"
  type: "ReLU"
  bottom: "InnerProduct170"
  top: "InnerProduct170"
}
layer {
  name: "InnerProduct171"
  type: "InnerProduct"
  bottom: "Slice35"
  top: "InnerProduct171"
  param {
    name: "w_s"
    lr_mult: 1
    decay_mult: 1
  }
  param {
    name: "b_s"
    lr_mult: 2
    decay_mult: 0
  }
  inner_product_param {
    num_output: 128
    weight_filler {
      type: "gaussian"
      std: 0.0098765
    }
    bias_filler {
      type: "constant"
      value: 0
    }
  }
}
layer {
  name: "ReLU171"
  type: "ReLU"
  bottom: "InnerProduct171"
  top: "InnerProduct171"
}
layer {
  name: "InnerProduct172"
  type: "InnerProduct"
  bottom: "InnerProduct171"
  top: "InnerProduct172"
  param {
    name: "w_trans0"
    lr_mult: 1
    decay_mult: 1
  }
  param {
    name: "b_trans0"
    lr_mult: 2
    decay_mult: 0
  }
  inner_product_param {
    num_output: 128
    weight_filler {
      type: "gaussian"
      std: 0.0098765
    }
    bias_filler {
      type: "constant"
      value: 0
    }
  }
}
layer {
  name: "ReLU172"
  type: "ReLU"
  bottom: "InnerProduct172"
  top: "InnerProduct172"
}
layer {
  name: "InnerProduct173"
  type: "InnerProduct"
  bottom: "InnerProduct172"
  top: "InnerProduct173"
  param {
    name: "w_trans0"
    lr_mult: 1
    decay_mult: 1
  }
  param {
    name: "b_trans0"
    lr_mult: 2
    decay_mult: 0
  }
  inner_product_param {
    num_output: 128
    weight_filler {
      type: "gaussian"
      std: 0.0098765
    }
    bias_filler {
      type: "constant"
      value: 0
    }
  }
}
layer {
  name: "ReLU173"
  type: "ReLU"
  bottom: "InnerProduct173"
  top: "InnerProduct173"
}
layer {
  name: "InnerProduct174"
  type: "InnerProduct"
  bottom: "InnerProduct173"
  top: "InnerProduct174"
  param {
    name: "w_trans0"
    lr_mult: 1
    decay_mult: 1
  }
  param {
    name: "b_trans0"
    lr_mult: 2
    decay_mult: 0
  }
  inner_product_param {
    num_output: 128
    weight_filler {
      type: "gaussian"
      std: 0.0098765
    }
    bias_filler {
      type: "constant"
      value: 0
    }
  }
}
layer {
  name: "ReLU174"
  type: "ReLU"
  bottom: "InnerProduct174"
  top: "InnerProduct174"
}
layer {
  name: "InnerProduct175"
  type: "InnerProduct"
  bottom: "InnerProduct174"
  top: "InnerProduct175"
  param {
    name: "w_e"
    lr_mult: 1
    decay_mult: 1
  }
  param {
    name: "b_e"
    lr_mult: 2
    decay_mult: 0
  }
  inner_product_param {
    num_output: 2
    weight_filler {
      type: "gaussian"
      std: 0.0098765
    }
    bias_filler {
      type: "constant"
      value: 0
    }
  }
}
layer {
  name: "ReLU175"
  type: "ReLU"
  bottom: "InnerProduct175"
  top: "InnerProduct175"
}
layer {
  name: "InnerProduct176"
  type: "InnerProduct"
  bottom: "Slice36"
  top: "InnerProduct176"
  param {
    name: "w_s"
    lr_mult: 1
    decay_mult: 1
  }
  param {
    name: "b_s"
    lr_mult: 2
    decay_mult: 0
  }
  inner_product_param {
    num_output: 128
    weight_filler {
      type: "gaussian"
      std: 0.0098765
    }
    bias_filler {
      type: "constant"
      value: 0
    }
  }
}
layer {
  name: "ReLU176"
  type: "ReLU"
  bottom: "InnerProduct176"
  top: "InnerProduct176"
}
layer {
  name: "InnerProduct177"
  type: "InnerProduct"
  bottom: "InnerProduct176"
  top: "InnerProduct177"
  param {
    name: "w_trans0"
    lr_mult: 1
    decay_mult: 1
  }
  param {
    name: "b_trans0"
    lr_mult: 2
    decay_mult: 0
  }
  inner_product_param {
    num_output: 128
    weight_filler {
      type: "gaussian"
      std: 0.0098765
    }
    bias_filler {
      type: "constant"
      value: 0
    }
  }
}
layer {
  name: "ReLU177"
  type: "ReLU"
  bottom: "InnerProduct177"
  top: "InnerProduct177"
}
layer {
  name: "InnerProduct178"
  type: "InnerProduct"
  bottom: "InnerProduct177"
  top: "InnerProduct178"
  param {
    name: "w_trans0"
    lr_mult: 1
    decay_mult: 1
  }
  param {
    name: "b_trans0"
    lr_mult: 2
    decay_mult: 0
  }
  inner_product_param {
    num_output: 128
    weight_filler {
      type: "gaussian"
      std: 0.0098765
    }
    bias_filler {
      type: "constant"
      value: 0
    }
  }
}
layer {
  name: "ReLU178"
  type: "ReLU"
  bottom: "InnerProduct178"
  top: "InnerProduct178"
}
layer {
  name: "InnerProduct179"
  type: "InnerProduct"
  bottom: "InnerProduct178"
  top: "InnerProduct179"
  param {
    name: "w_trans0"
    lr_mult: 1
    decay_mult: 1
  }
  param {
    name: "b_trans0"
    lr_mult: 2
    decay_mult: 0
  }
  inner_product_param {
    num_output: 128
    weight_filler {
      type: "gaussian"
      std: 0.0098765
    }
    bias_filler {
      type: "constant"
      value: 0
    }
  }
}
layer {
  name: "ReLU179"
  type: "ReLU"
  bottom: "InnerProduct179"
  top: "InnerProduct179"
}
layer {
  name: "InnerProduct180"
  type: "InnerProduct"
  bottom: "InnerProduct179"
  top: "InnerProduct180"
  param {
    name: "w_e"
    lr_mult: 1
    decay_mult: 1
  }
  param {
    name: "b_e"
    lr_mult: 2
    decay_mult: 0
  }
  inner_product_param {
    num_output: 2
    weight_filler {
      type: "gaussian"
      std: 0.0098765
    }
    bias_filler {
      type: "constant"
      value: 0
    }
  }
}
layer {
  name: "ReLU180"
  type: "ReLU"
  bottom: "InnerProduct180"
  top: "InnerProduct180"
}
layer {
  name: "InnerProduct181"
  type: "InnerProduct"
  bottom: "Slice37"
  top: "InnerProduct181"
  param {
    name: "w_s"
    lr_mult: 1
    decay_mult: 1
  }
  param {
    name: "b_s"
    lr_mult: 2
    decay_mult: 0
  }
  inner_product_param {
    num_output: 128
    weight_filler {
      type: "gaussian"
      std: 0.0098765
    }
    bias_filler {
      type: "constant"
      value: 0
    }
  }
}
layer {
  name: "ReLU181"
  type: "ReLU"
  bottom: "InnerProduct181"
  top: "InnerProduct181"
}
layer {
  name: "InnerProduct182"
  type: "InnerProduct"
  bottom: "InnerProduct181"
  top: "InnerProduct182"
  param {
    name: "w_trans0"
    lr_mult: 1
    decay_mult: 1
  }
  param {
    name: "b_trans0"
    lr_mult: 2
    decay_mult: 0
  }
  inner_product_param {
    num_output: 128
    weight_filler {
      type: "gaussian"
      std: 0.0098765
    }
    bias_filler {
      type: "constant"
      value: 0
    }
  }
}
layer {
  name: "ReLU182"
  type: "ReLU"
  bottom: "InnerProduct182"
  top: "InnerProduct182"
}
layer {
  name: "InnerProduct183"
  type: "InnerProduct"
  bottom: "InnerProduct182"
  top: "InnerProduct183"
  param {
    name: "w_trans0"
    lr_mult: 1
    decay_mult: 1
  }
  param {
    name: "b_trans0"
    lr_mult: 2
    decay_mult: 0
  }
  inner_product_param {
    num_output: 128
    weight_filler {
      type: "gaussian"
      std: 0.0098765
    }
    bias_filler {
      type: "constant"
      value: 0
    }
  }
}
layer {
  name: "ReLU183"
  type: "ReLU"
  bottom: "InnerProduct183"
  top: "InnerProduct183"
}
layer {
  name: "InnerProduct184"
  type: "InnerProduct"
  bottom: "InnerProduct183"
  top: "InnerProduct184"
  param {
    name: "w_trans0"
    lr_mult: 1
    decay_mult: 1
  }
  param {
    name: "b_trans0"
    lr_mult: 2
    decay_mult: 0
  }
  inner_product_param {
    num_output: 128
    weight_filler {
      type: "gaussian"
      std: 0.0098765
    }
    bias_filler {
      type: "constant"
      value: 0
    }
  }
}
layer {
  name: "ReLU184"
  type: "ReLU"
  bottom: "InnerProduct184"
  top: "InnerProduct184"
}
layer {
  name: "InnerProduct185"
  type: "InnerProduct"
  bottom: "InnerProduct184"
  top: "InnerProduct185"
  param {
    name: "w_e"
    lr_mult: 1
    decay_mult: 1
  }
  param {
    name: "b_e"
    lr_mult: 2
    decay_mult: 0
  }
  inner_product_param {
    num_output: 2
    weight_filler {
      type: "gaussian"
      std: 0.0098765
    }
    bias_filler {
      type: "constant"
      value: 0
    }
  }
}
layer {
  name: "ReLU185"
  type: "ReLU"
  bottom: "InnerProduct185"
  top: "InnerProduct185"
}
layer {
  name: "InnerProduct186"
  type: "InnerProduct"
  bottom: "Slice38"
  top: "InnerProduct186"
  param {
    name: "w_s"
    lr_mult: 1
    decay_mult: 1
  }
  param {
    name: "b_s"
    lr_mult: 2
    decay_mult: 0
  }
  inner_product_param {
    num_output: 128
    weight_filler {
      type: "gaussian"
      std: 0.0098765
    }
    bias_filler {
      type: "constant"
      value: 0
    }
  }
}
layer {
  name: "ReLU186"
  type: "ReLU"
  bottom: "InnerProduct186"
  top: "InnerProduct186"
}
layer {
  name: "InnerProduct187"
  type: "InnerProduct"
  bottom: "InnerProduct186"
  top: "InnerProduct187"
  param {
    name: "w_trans0"
    lr_mult: 1
    decay_mult: 1
  }
  param {
    name: "b_trans0"
    lr_mult: 2
    decay_mult: 0
  }
  inner_product_param {
    num_output: 128
    weight_filler {
      type: "gaussian"
      std: 0.0098765
    }
    bias_filler {
      type: "constant"
      value: 0
    }
  }
}
layer {
  name: "ReLU187"
  type: "ReLU"
  bottom: "InnerProduct187"
  top: "InnerProduct187"
}
layer {
  name: "InnerProduct188"
  type: "InnerProduct"
  bottom: "InnerProduct187"
  top: "InnerProduct188"
  param {
    name: "w_trans0"
    lr_mult: 1
    decay_mult: 1
  }
  param {
    name: "b_trans0"
    lr_mult: 2
    decay_mult: 0
  }
  inner_product_param {
    num_output: 128
    weight_filler {
      type: "gaussian"
      std: 0.0098765
    }
    bias_filler {
      type: "constant"
      value: 0
    }
  }
}
layer {
  name: "ReLU188"
  type: "ReLU"
  bottom: "InnerProduct188"
  top: "InnerProduct188"
}
layer {
  name: "InnerProduct189"
  type: "InnerProduct"
  bottom: "InnerProduct188"
  top: "InnerProduct189"
  param {
    name: "w_trans0"
    lr_mult: 1
    decay_mult: 1
  }
  param {
    name: "b_trans0"
    lr_mult: 2
    decay_mult: 0
  }
  inner_product_param {
    num_output: 128
    weight_filler {
      type: "gaussian"
      std: 0.0098765
    }
    bias_filler {
      type: "constant"
      value: 0
    }
  }
}
layer {
  name: "ReLU189"
  type: "ReLU"
  bottom: "InnerProduct189"
  top: "InnerProduct189"
}
layer {
  name: "InnerProduct190"
  type: "InnerProduct"
  bottom: "InnerProduct189"
  top: "InnerProduct190"
  param {
    name: "w_e"
    lr_mult: 1
    decay_mult: 1
  }
  param {
    name: "b_e"
    lr_mult: 2
    decay_mult: 0
  }
  inner_product_param {
    num_output: 2
    weight_filler {
      type: "gaussian"
      std: 0.0098765
    }
    bias_filler {
      type: "constant"
      value: 0
    }
  }
}
layer {
  name: "ReLU190"
  type: "ReLU"
  bottom: "InnerProduct190"
  top: "InnerProduct190"
}
layer {
  name: "InnerProduct191"
  type: "InnerProduct"
  bottom: "Slice39"
  top: "InnerProduct191"
  param {
    name: "w_s"
    lr_mult: 1
    decay_mult: 1
  }
  param {
    name: "b_s"
    lr_mult: 2
    decay_mult: 0
  }
  inner_product_param {
    num_output: 128
    weight_filler {
      type: "gaussian"
      std: 0.0098765
    }
    bias_filler {
      type: "constant"
      value: 0
    }
  }
}
layer {
  name: "ReLU191"
  type: "ReLU"
  bottom: "InnerProduct191"
  top: "InnerProduct191"
}
layer {
  name: "InnerProduct192"
  type: "InnerProduct"
  bottom: "InnerProduct191"
  top: "InnerProduct192"
  param {
    name: "w_trans0"
    lr_mult: 1
    decay_mult: 1
  }
  param {
    name: "b_trans0"
    lr_mult: 2
    decay_mult: 0
  }
  inner_product_param {
    num_output: 128
    weight_filler {
      type: "gaussian"
      std: 0.0098765
    }
    bias_filler {
      type: "constant"
      value: 0
    }
  }
}
layer {
  name: "ReLU192"
  type: "ReLU"
  bottom: "InnerProduct192"
  top: "InnerProduct192"
}
layer {
  name: "InnerProduct193"
  type: "InnerProduct"
  bottom: "InnerProduct192"
  top: "InnerProduct193"
  param {
    name: "w_trans0"
    lr_mult: 1
    decay_mult: 1
  }
  param {
    name: "b_trans0"
    lr_mult: 2
    decay_mult: 0
  }
  inner_product_param {
    num_output: 128
    weight_filler {
      type: "gaussian"
      std: 0.0098765
    }
    bias_filler {
      type: "constant"
      value: 0
    }
  }
}
layer {
  name: "ReLU193"
  type: "ReLU"
  bottom: "InnerProduct193"
  top: "InnerProduct193"
}
layer {
  name: "InnerProduct194"
  type: "InnerProduct"
  bottom: "InnerProduct193"
  top: "InnerProduct194"
  param {
    name: "w_trans0"
    lr_mult: 1
    decay_mult: 1
  }
  param {
    name: "b_trans0"
    lr_mult: 2
    decay_mult: 0
  }
  inner_product_param {
    num_output: 128
    weight_filler {
      type: "gaussian"
      std: 0.0098765
    }
    bias_filler {
      type: "constant"
      value: 0
    }
  }
}
layer {
  name: "ReLU194"
  type: "ReLU"
  bottom: "InnerProduct194"
  top: "InnerProduct194"
}
layer {
  name: "InnerProduct195"
  type: "InnerProduct"
  bottom: "InnerProduct194"
  top: "InnerProduct195"
  param {
    name: "w_e"
    lr_mult: 1
    decay_mult: 1
  }
  param {
    name: "b_e"
    lr_mult: 2
    decay_mult: 0
  }
  inner_product_param {
    num_output: 2
    weight_filler {
      type: "gaussian"
      std: 0.0098765
    }
    bias_filler {
      type: "constant"
      value: 0
    }
  }
}
layer {
  name: "ReLU195"
  type: "ReLU"
  bottom: "InnerProduct195"
  top: "InnerProduct195"
}
layer {
  name: "InnerProduct196"
  type: "InnerProduct"
  bottom: "Slice40"
  top: "InnerProduct196"
  param {
    name: "w_s"
    lr_mult: 1
    decay_mult: 1
  }
  param {
    name: "b_s"
    lr_mult: 2
    decay_mult: 0
  }
  inner_product_param {
    num_output: 128
    weight_filler {
      type: "gaussian"
      std: 0.0098765
    }
    bias_filler {
      type: "constant"
      value: 0
    }
  }
}
layer {
  name: "ReLU196"
  type: "ReLU"
  bottom: "InnerProduct196"
  top: "InnerProduct196"
}
layer {
  name: "InnerProduct197"
  type: "InnerProduct"
  bottom: "InnerProduct196"
  top: "InnerProduct197"
  param {
    name: "w_trans0"
    lr_mult: 1
    decay_mult: 1
  }
  param {
    name: "b_trans0"
    lr_mult: 2
    decay_mult: 0
  }
  inner_product_param {
    num_output: 128
    weight_filler {
      type: "gaussian"
      std: 0.0098765
    }
    bias_filler {
      type: "constant"
      value: 0
    }
  }
}
layer {
  name: "ReLU197"
  type: "ReLU"
  bottom: "InnerProduct197"
  top: "InnerProduct197"
}
layer {
  name: "InnerProduct198"
  type: "InnerProduct"
  bottom: "InnerProduct197"
  top: "InnerProduct198"
  param {
    name: "w_trans0"
    lr_mult: 1
    decay_mult: 1
  }
  param {
    name: "b_trans0"
    lr_mult: 2
    decay_mult: 0
  }
  inner_product_param {
    num_output: 128
    weight_filler {
      type: "gaussian"
      std: 0.0098765
    }
    bias_filler {
      type: "constant"
      value: 0
    }
  }
}
layer {
  name: "ReLU198"
  type: "ReLU"
  bottom: "InnerProduct198"
  top: "InnerProduct198"
}
layer {
  name: "InnerProduct199"
  type: "InnerProduct"
  bottom: "InnerProduct198"
  top: "InnerProduct199"
  param {
    name: "w_trans0"
    lr_mult: 1
    decay_mult: 1
  }
  param {
    name: "b_trans0"
    lr_mult: 2
    decay_mult: 0
  }
  inner_product_param {
    num_output: 128
    weight_filler {
      type: "gaussian"
      std: 0.0098765
    }
    bias_filler {
      type: "constant"
      value: 0
    }
  }
}
layer {
  name: "ReLU199"
  type: "ReLU"
  bottom: "InnerProduct199"
  top: "InnerProduct199"
}
layer {
  name: "InnerProduct200"
  type: "InnerProduct"
  bottom: "InnerProduct199"
  top: "InnerProduct200"
  param {
    name: "w_e"
    lr_mult: 1
    decay_mult: 1
  }
  param {
    name: "b_e"
    lr_mult: 2
    decay_mult: 0
  }
  inner_product_param {
    num_output: 2
    weight_filler {
      type: "gaussian"
      std: 0.0098765
    }
    bias_filler {
      type: "constant"
      value: 0
    }
  }
}
layer {
  name: "ReLU200"
  type: "ReLU"
  bottom: "InnerProduct200"
  top: "InnerProduct200"
}
layer {
  name: "InnerProduct201"
  type: "InnerProduct"
  bottom: "Slice41"
  top: "InnerProduct201"
  param {
    name: "w_s"
    lr_mult: 1
    decay_mult: 1
  }
  param {
    name: "b_s"
    lr_mult: 2
    decay_mult: 0
  }
  inner_product_param {
    num_output: 128
    weight_filler {
      type: "gaussian"
      std: 0.0098765
    }
    bias_filler {
      type: "constant"
      value: 0
    }
  }
}
layer {
  name: "ReLU201"
  type: "ReLU"
  bottom: "InnerProduct201"
  top: "InnerProduct201"
}
layer {
  name: "InnerProduct202"
  type: "InnerProduct"
  bottom: "InnerProduct201"
  top: "InnerProduct202"
  param {
    name: "w_trans0"
    lr_mult: 1
    decay_mult: 1
  }
  param {
    name: "b_trans0"
    lr_mult: 2
    decay_mult: 0
  }
  inner_product_param {
    num_output: 128
    weight_filler {
      type: "gaussian"
      std: 0.0098765
    }
    bias_filler {
      type: "constant"
      value: 0
    }
  }
}
layer {
  name: "ReLU202"
  type: "ReLU"
  bottom: "InnerProduct202"
  top: "InnerProduct202"
}
layer {
  name: "InnerProduct203"
  type: "InnerProduct"
  bottom: "InnerProduct202"
  top: "InnerProduct203"
  param {
    name: "w_trans0"
    lr_mult: 1
    decay_mult: 1
  }
  param {
    name: "b_trans0"
    lr_mult: 2
    decay_mult: 0
  }
  inner_product_param {
    num_output: 128
    weight_filler {
      type: "gaussian"
      std: 0.0098765
    }
    bias_filler {
      type: "constant"
      value: 0
    }
  }
}
layer {
  name: "ReLU203"
  type: "ReLU"
  bottom: "InnerProduct203"
  top: "InnerProduct203"
}
layer {
  name: "InnerProduct204"
  type: "InnerProduct"
  bottom: "InnerProduct203"
  top: "InnerProduct204"
  param {
    name: "w_trans0"
    lr_mult: 1
    decay_mult: 1
  }
  param {
    name: "b_trans0"
    lr_mult: 2
    decay_mult: 0
  }
  inner_product_param {
    num_output: 128
    weight_filler {
      type: "gaussian"
      std: 0.0098765
    }
    bias_filler {
      type: "constant"
      value: 0
    }
  }
}
layer {
  name: "ReLU204"
  type: "ReLU"
  bottom: "InnerProduct204"
  top: "InnerProduct204"
}
layer {
  name: "InnerProduct205"
  type: "InnerProduct"
  bottom: "InnerProduct204"
  top: "InnerProduct205"
  param {
    name: "w_e"
    lr_mult: 1
    decay_mult: 1
  }
  param {
    name: "b_e"
    lr_mult: 2
    decay_mult: 0
  }
  inner_product_param {
    num_output: 2
    weight_filler {
      type: "gaussian"
      std: 0.0098765
    }
    bias_filler {
      type: "constant"
      value: 0
    }
  }
}
layer {
  name: "ReLU205"
  type: "ReLU"
  bottom: "InnerProduct205"
  top: "InnerProduct205"
}
layer {
  name: "InnerProduct206"
  type: "InnerProduct"
  bottom: "Slice42"
  top: "InnerProduct206"
  param {
    name: "w_s"
    lr_mult: 1
    decay_mult: 1
  }
  param {
    name: "b_s"
    lr_mult: 2
    decay_mult: 0
  }
  inner_product_param {
    num_output: 128
    weight_filler {
      type: "gaussian"
      std: 0.0098765
    }
    bias_filler {
      type: "constant"
      value: 0
    }
  }
}
layer {
  name: "ReLU206"
  type: "ReLU"
  bottom: "InnerProduct206"
  top: "InnerProduct206"
}
layer {
  name: "InnerProduct207"
  type: "InnerProduct"
  bottom: "InnerProduct206"
  top: "InnerProduct207"
  param {
    name: "w_trans0"
    lr_mult: 1
    decay_mult: 1
  }
  param {
    name: "b_trans0"
    lr_mult: 2
    decay_mult: 0
  }
  inner_product_param {
    num_output: 128
    weight_filler {
      type: "gaussian"
      std: 0.0098765
    }
    bias_filler {
      type: "constant"
      value: 0
    }
  }
}
layer {
  name: "ReLU207"
  type: "ReLU"
  bottom: "InnerProduct207"
  top: "InnerProduct207"
}
layer {
  name: "InnerProduct208"
  type: "InnerProduct"
  bottom: "InnerProduct207"
  top: "InnerProduct208"
  param {
    name: "w_trans0"
    lr_mult: 1
    decay_mult: 1
  }
  param {
    name: "b_trans0"
    lr_mult: 2
    decay_mult: 0
  }
  inner_product_param {
    num_output: 128
    weight_filler {
      type: "gaussian"
      std: 0.0098765
    }
    bias_filler {
      type: "constant"
      value: 0
    }
  }
}
layer {
  name: "ReLU208"
  type: "ReLU"
  bottom: "InnerProduct208"
  top: "InnerProduct208"
}
layer {
  name: "InnerProduct209"
  type: "InnerProduct"
  bottom: "InnerProduct208"
  top: "InnerProduct209"
  param {
    name: "w_trans0"
    lr_mult: 1
    decay_mult: 1
  }
  param {
    name: "b_trans0"
    lr_mult: 2
    decay_mult: 0
  }
  inner_product_param {
    num_output: 128
    weight_filler {
      type: "gaussian"
      std: 0.0098765
    }
    bias_filler {
      type: "constant"
      value: 0
    }
  }
}
layer {
  name: "ReLU209"
  type: "ReLU"
  bottom: "InnerProduct209"
  top: "InnerProduct209"
}
layer {
  name: "InnerProduct210"
  type: "InnerProduct"
  bottom: "InnerProduct209"
  top: "InnerProduct210"
  param {
    name: "w_e"
    lr_mult: 1
    decay_mult: 1
  }
  param {
    name: "b_e"
    lr_mult: 2
    decay_mult: 0
  }
  inner_product_param {
    num_output: 2
    weight_filler {
      type: "gaussian"
      std: 0.0098765
    }
    bias_filler {
      type: "constant"
      value: 0
    }
  }
}
layer {
  name: "ReLU210"
  type: "ReLU"
  bottom: "InnerProduct210"
  top: "InnerProduct210"
}
layer {
  name: "InnerProduct211"
  type: "InnerProduct"
  bottom: "Slice43"
  top: "InnerProduct211"
  param {
    name: "w_s"
    lr_mult: 1
    decay_mult: 1
  }
  param {
    name: "b_s"
    lr_mult: 2
    decay_mult: 0
  }
  inner_product_param {
    num_output: 128
    weight_filler {
      type: "gaussian"
      std: 0.0098765
    }
    bias_filler {
      type: "constant"
      value: 0
    }
  }
}
layer {
  name: "ReLU211"
  type: "ReLU"
  bottom: "InnerProduct211"
  top: "InnerProduct211"
}
layer {
  name: "InnerProduct212"
  type: "InnerProduct"
  bottom: "InnerProduct211"
  top: "InnerProduct212"
  param {
    name: "w_trans0"
    lr_mult: 1
    decay_mult: 1
  }
  param {
    name: "b_trans0"
    lr_mult: 2
    decay_mult: 0
  }
  inner_product_param {
    num_output: 128
    weight_filler {
      type: "gaussian"
      std: 0.0098765
    }
    bias_filler {
      type: "constant"
      value: 0
    }
  }
}
layer {
  name: "ReLU212"
  type: "ReLU"
  bottom: "InnerProduct212"
  top: "InnerProduct212"
}
layer {
  name: "InnerProduct213"
  type: "InnerProduct"
  bottom: "InnerProduct212"
  top: "InnerProduct213"
  param {
    name: "w_trans0"
    lr_mult: 1
    decay_mult: 1
  }
  param {
    name: "b_trans0"
    lr_mult: 2
    decay_mult: 0
  }
  inner_product_param {
    num_output: 128
    weight_filler {
      type: "gaussian"
      std: 0.0098765
    }
    bias_filler {
      type: "constant"
      value: 0
    }
  }
}
layer {
  name: "ReLU213"
  type: "ReLU"
  bottom: "InnerProduct213"
  top: "InnerProduct213"
}
layer {
  name: "InnerProduct214"
  type: "InnerProduct"
  bottom: "InnerProduct213"
  top: "InnerProduct214"
  param {
    name: "w_trans0"
    lr_mult: 1
    decay_mult: 1
  }
  param {
    name: "b_trans0"
    lr_mult: 2
    decay_mult: 0
  }
  inner_product_param {
    num_output: 128
    weight_filler {
      type: "gaussian"
      std: 0.0098765
    }
    bias_filler {
      type: "constant"
      value: 0
    }
  }
}
layer {
  name: "ReLU214"
  type: "ReLU"
  bottom: "InnerProduct214"
  top: "InnerProduct214"
}
layer {
  name: "InnerProduct215"
  type: "InnerProduct"
  bottom: "InnerProduct214"
  top: "InnerProduct215"
  param {
    name: "w_e"
    lr_mult: 1
    decay_mult: 1
  }
  param {
    name: "b_e"
    lr_mult: 2
    decay_mult: 0
  }
  inner_product_param {
    num_output: 2
    weight_filler {
      type: "gaussian"
      std: 0.0098765
    }
    bias_filler {
      type: "constant"
      value: 0
    }
  }
}
layer {
  name: "ReLU215"
  type: "ReLU"
  bottom: "InnerProduct215"
  top: "InnerProduct215"
}
layer {
  name: "InnerProduct216"
  type: "InnerProduct"
  bottom: "Slice44"
  top: "InnerProduct216"
  param {
    name: "w_s"
    lr_mult: 1
    decay_mult: 1
  }
  param {
    name: "b_s"
    lr_mult: 2
    decay_mult: 0
  }
  inner_product_param {
    num_output: 128
    weight_filler {
      type: "gaussian"
      std: 0.0098765
    }
    bias_filler {
      type: "constant"
      value: 0
    }
  }
}
layer {
  name: "ReLU216"
  type: "ReLU"
  bottom: "InnerProduct216"
  top: "InnerProduct216"
}
layer {
  name: "InnerProduct217"
  type: "InnerProduct"
  bottom: "InnerProduct216"
  top: "InnerProduct217"
  param {
    name: "w_trans0"
    lr_mult: 1
    decay_mult: 1
  }
  param {
    name: "b_trans0"
    lr_mult: 2
    decay_mult: 0
  }
  inner_product_param {
    num_output: 128
    weight_filler {
      type: "gaussian"
      std: 0.0098765
    }
    bias_filler {
      type: "constant"
      value: 0
    }
  }
}
layer {
  name: "ReLU217"
  type: "ReLU"
  bottom: "InnerProduct217"
  top: "InnerProduct217"
}
layer {
  name: "InnerProduct218"
  type: "InnerProduct"
  bottom: "InnerProduct217"
  top: "InnerProduct218"
  param {
    name: "w_trans0"
    lr_mult: 1
    decay_mult: 1
  }
  param {
    name: "b_trans0"
    lr_mult: 2
    decay_mult: 0
  }
  inner_product_param {
    num_output: 128
    weight_filler {
      type: "gaussian"
      std: 0.0098765
    }
    bias_filler {
      type: "constant"
      value: 0
    }
  }
}
layer {
  name: "ReLU218"
  type: "ReLU"
  bottom: "InnerProduct218"
  top: "InnerProduct218"
}
layer {
  name: "InnerProduct219"
  type: "InnerProduct"
  bottom: "InnerProduct218"
  top: "InnerProduct219"
  param {
    name: "w_trans0"
    lr_mult: 1
    decay_mult: 1
  }
  param {
    name: "b_trans0"
    lr_mult: 2
    decay_mult: 0
  }
  inner_product_param {
    num_output: 128
    weight_filler {
      type: "gaussian"
      std: 0.0098765
    }
    bias_filler {
      type: "constant"
      value: 0
    }
  }
}
layer {
  name: "ReLU219"
  type: "ReLU"
  bottom: "InnerProduct219"
  top: "InnerProduct219"
}
layer {
  name: "InnerProduct220"
  type: "InnerProduct"
  bottom: "InnerProduct219"
  top: "InnerProduct220"
  param {
    name: "w_e"
    lr_mult: 1
    decay_mult: 1
  }
  param {
    name: "b_e"
    lr_mult: 2
    decay_mult: 0
  }
  inner_product_param {
    num_output: 2
    weight_filler {
      type: "gaussian"
      std: 0.0098765
    }
    bias_filler {
      type: "constant"
      value: 0
    }
  }
}
layer {
  name: "ReLU220"
  type: "ReLU"
  bottom: "InnerProduct220"
  top: "InnerProduct220"
}
layer {
  name: "InnerProduct221"
  type: "InnerProduct"
  bottom: "Slice45"
  top: "InnerProduct221"
  param {
    name: "w_s"
    lr_mult: 1
    decay_mult: 1
  }
  param {
    name: "b_s"
    lr_mult: 2
    decay_mult: 0
  }
  inner_product_param {
    num_output: 128
    weight_filler {
      type: "gaussian"
      std: 0.0098765
    }
    bias_filler {
      type: "constant"
      value: 0
    }
  }
}
layer {
  name: "ReLU221"
  type: "ReLU"
  bottom: "InnerProduct221"
  top: "InnerProduct221"
}
layer {
  name: "InnerProduct222"
  type: "InnerProduct"
  bottom: "InnerProduct221"
  top: "InnerProduct222"
  param {
    name: "w_trans0"
    lr_mult: 1
    decay_mult: 1
  }
  param {
    name: "b_trans0"
    lr_mult: 2
    decay_mult: 0
  }
  inner_product_param {
    num_output: 128
    weight_filler {
      type: "gaussian"
      std: 0.0098765
    }
    bias_filler {
      type: "constant"
      value: 0
    }
  }
}
layer {
  name: "ReLU222"
  type: "ReLU"
  bottom: "InnerProduct222"
  top: "InnerProduct222"
}
layer {
  name: "InnerProduct223"
  type: "InnerProduct"
  bottom: "InnerProduct222"
  top: "InnerProduct223"
  param {
    name: "w_trans0"
    lr_mult: 1
    decay_mult: 1
  }
  param {
    name: "b_trans0"
    lr_mult: 2
    decay_mult: 0
  }
  inner_product_param {
    num_output: 128
    weight_filler {
      type: "gaussian"
      std: 0.0098765
    }
    bias_filler {
      type: "constant"
      value: 0
    }
  }
}
layer {
  name: "ReLU223"
  type: "ReLU"
  bottom: "InnerProduct223"
  top: "InnerProduct223"
}
layer {
  name: "InnerProduct224"
  type: "InnerProduct"
  bottom: "InnerProduct223"
  top: "InnerProduct224"
  param {
    name: "w_trans0"
    lr_mult: 1
    decay_mult: 1
  }
  param {
    name: "b_trans0"
    lr_mult: 2
    decay_mult: 0
  }
  inner_product_param {
    num_output: 128
    weight_filler {
      type: "gaussian"
      std: 0.0098765
    }
    bias_filler {
      type: "constant"
      value: 0
    }
  }
}
layer {
  name: "ReLU224"
  type: "ReLU"
  bottom: "InnerProduct224"
  top: "InnerProduct224"
}
layer {
  name: "InnerProduct225"
  type: "InnerProduct"
  bottom: "InnerProduct224"
  top: "InnerProduct225"
  param {
    name: "w_e"
    lr_mult: 1
    decay_mult: 1
  }
  param {
    name: "b_e"
    lr_mult: 2
    decay_mult: 0
  }
  inner_product_param {
    num_output: 2
    weight_filler {
      type: "gaussian"
      std: 0.0098765
    }
    bias_filler {
      type: "constant"
      value: 0
    }
  }
}
layer {
  name: "ReLU225"
  type: "ReLU"
  bottom: "InnerProduct225"
  top: "InnerProduct225"
}
layer {
  name: "InnerProduct226"
  type: "InnerProduct"
  bottom: "Slice46"
  top: "InnerProduct226"
  param {
    name: "w_s"
    lr_mult: 1
    decay_mult: 1
  }
  param {
    name: "b_s"
    lr_mult: 2
    decay_mult: 0
  }
  inner_product_param {
    num_output: 128
    weight_filler {
      type: "gaussian"
      std: 0.0098765
    }
    bias_filler {
      type: "constant"
      value: 0
    }
  }
}
layer {
  name: "ReLU226"
  type: "ReLU"
  bottom: "InnerProduct226"
  top: "InnerProduct226"
}
layer {
  name: "InnerProduct227"
  type: "InnerProduct"
  bottom: "InnerProduct226"
  top: "InnerProduct227"
  param {
    name: "w_trans0"
    lr_mult: 1
    decay_mult: 1
  }
  param {
    name: "b_trans0"
    lr_mult: 2
    decay_mult: 0
  }
  inner_product_param {
    num_output: 128
    weight_filler {
      type: "gaussian"
      std: 0.0098765
    }
    bias_filler {
      type: "constant"
      value: 0
    }
  }
}
layer {
  name: "ReLU227"
  type: "ReLU"
  bottom: "InnerProduct227"
  top: "InnerProduct227"
}
layer {
  name: "InnerProduct228"
  type: "InnerProduct"
  bottom: "InnerProduct227"
  top: "InnerProduct228"
  param {
    name: "w_trans0"
    lr_mult: 1
    decay_mult: 1
  }
  param {
    name: "b_trans0"
    lr_mult: 2
    decay_mult: 0
  }
  inner_product_param {
    num_output: 128
    weight_filler {
      type: "gaussian"
      std: 0.0098765
    }
    bias_filler {
      type: "constant"
      value: 0
    }
  }
}
layer {
  name: "ReLU228"
  type: "ReLU"
  bottom: "InnerProduct228"
  top: "InnerProduct228"
}
layer {
  name: "InnerProduct229"
  type: "InnerProduct"
  bottom: "InnerProduct228"
  top: "InnerProduct229"
  param {
    name: "w_trans0"
    lr_mult: 1
    decay_mult: 1
  }
  param {
    name: "b_trans0"
    lr_mult: 2
    decay_mult: 0
  }
  inner_product_param {
    num_output: 128
    weight_filler {
      type: "gaussian"
      std: 0.0098765
    }
    bias_filler {
      type: "constant"
      value: 0
    }
  }
}
layer {
  name: "ReLU229"
  type: "ReLU"
  bottom: "InnerProduct229"
  top: "InnerProduct229"
}
layer {
  name: "InnerProduct230"
  type: "InnerProduct"
  bottom: "InnerProduct229"
  top: "InnerProduct230"
  param {
    name: "w_e"
    lr_mult: 1
    decay_mult: 1
  }
  param {
    name: "b_e"
    lr_mult: 2
    decay_mult: 0
  }
  inner_product_param {
    num_output: 2
    weight_filler {
      type: "gaussian"
      std: 0.0098765
    }
    bias_filler {
      type: "constant"
      value: 0
    }
  }
}
layer {
  name: "ReLU230"
  type: "ReLU"
  bottom: "InnerProduct230"
  top: "InnerProduct230"
}
layer {
  name: "InnerProduct231"
  type: "InnerProduct"
  bottom: "Slice47"
  top: "InnerProduct231"
  param {
    name: "w_s"
    lr_mult: 1
    decay_mult: 1
  }
  param {
    name: "b_s"
    lr_mult: 2
    decay_mult: 0
  }
  inner_product_param {
    num_output: 128
    weight_filler {
      type: "gaussian"
      std: 0.0098765
    }
    bias_filler {
      type: "constant"
      value: 0
    }
  }
}
layer {
  name: "ReLU231"
  type: "ReLU"
  bottom: "InnerProduct231"
  top: "InnerProduct231"
}
layer {
  name: "InnerProduct232"
  type: "InnerProduct"
  bottom: "InnerProduct231"
  top: "InnerProduct232"
  param {
    name: "w_trans0"
    lr_mult: 1
    decay_mult: 1
  }
  param {
    name: "b_trans0"
    lr_mult: 2
    decay_mult: 0
  }
  inner_product_param {
    num_output: 128
    weight_filler {
      type: "gaussian"
      std: 0.0098765
    }
    bias_filler {
      type: "constant"
      value: 0
    }
  }
}
layer {
  name: "ReLU232"
  type: "ReLU"
  bottom: "InnerProduct232"
  top: "InnerProduct232"
}
layer {
  name: "InnerProduct233"
  type: "InnerProduct"
  bottom: "InnerProduct232"
  top: "InnerProduct233"
  param {
    name: "w_trans0"
    lr_mult: 1
    decay_mult: 1
  }
  param {
    name: "b_trans0"
    lr_mult: 2
    decay_mult: 0
  }
  inner_product_param {
    num_output: 128
    weight_filler {
      type: "gaussian"
      std: 0.0098765
    }
    bias_filler {
      type: "constant"
      value: 0
    }
  }
}
layer {
  name: "ReLU233"
  type: "ReLU"
  bottom: "InnerProduct233"
  top: "InnerProduct233"
}
layer {
  name: "InnerProduct234"
  type: "InnerProduct"
  bottom: "InnerProduct233"
  top: "InnerProduct234"
  param {
    name: "w_trans0"
    lr_mult: 1
    decay_mult: 1
  }
  param {
    name: "b_trans0"
    lr_mult: 2
    decay_mult: 0
  }
  inner_product_param {
    num_output: 128
    weight_filler {
      type: "gaussian"
      std: 0.0098765
    }
    bias_filler {
      type: "constant"
      value: 0
    }
  }
}
layer {
  name: "ReLU234"
  type: "ReLU"
  bottom: "InnerProduct234"
  top: "InnerProduct234"
}
layer {
  name: "InnerProduct235"
  type: "InnerProduct"
  bottom: "InnerProduct234"
  top: "InnerProduct235"
  param {
    name: "w_e"
    lr_mult: 1
    decay_mult: 1
  }
  param {
    name: "b_e"
    lr_mult: 2
    decay_mult: 0
  }
  inner_product_param {
    num_output: 2
    weight_filler {
      type: "gaussian"
      std: 0.0098765
    }
    bias_filler {
      type: "constant"
      value: 0
    }
  }
}
layer {
  name: "ReLU235"
  type: "ReLU"
  bottom: "InnerProduct235"
  top: "InnerProduct235"
}
layer {
  name: "InnerProduct236"
  type: "InnerProduct"
  bottom: "Slice48"
  top: "InnerProduct236"
  param {
    name: "w_s"
    lr_mult: 1
    decay_mult: 1
  }
  param {
    name: "b_s"
    lr_mult: 2
    decay_mult: 0
  }
  inner_product_param {
    num_output: 128
    weight_filler {
      type: "gaussian"
      std: 0.0098765
    }
    bias_filler {
      type: "constant"
      value: 0
    }
  }
}
layer {
  name: "ReLU236"
  type: "ReLU"
  bottom: "InnerProduct236"
  top: "InnerProduct236"
}
layer {
  name: "InnerProduct237"
  type: "InnerProduct"
  bottom: "InnerProduct236"
  top: "InnerProduct237"
  param {
    name: "w_trans0"
    lr_mult: 1
    decay_mult: 1
  }
  param {
    name: "b_trans0"
    lr_mult: 2
    decay_mult: 0
  }
  inner_product_param {
    num_output: 128
    weight_filler {
      type: "gaussian"
      std: 0.0098765
    }
    bias_filler {
      type: "constant"
      value: 0
    }
  }
}
layer {
  name: "ReLU237"
  type: "ReLU"
  bottom: "InnerProduct237"
  top: "InnerProduct237"
}
layer {
  name: "InnerProduct238"
  type: "InnerProduct"
  bottom: "InnerProduct237"
  top: "InnerProduct238"
  param {
    name: "w_trans0"
    lr_mult: 1
    decay_mult: 1
  }
  param {
    name: "b_trans0"
    lr_mult: 2
    decay_mult: 0
  }
  inner_product_param {
    num_output: 128
    weight_filler {
      type: "gaussian"
      std: 0.0098765
    }
    bias_filler {
      type: "constant"
      value: 0
    }
  }
}
layer {
  name: "ReLU238"
  type: "ReLU"
  bottom: "InnerProduct238"
  top: "InnerProduct238"
}
layer {
  name: "InnerProduct239"
  type: "InnerProduct"
  bottom: "InnerProduct238"
  top: "InnerProduct239"
  param {
    name: "w_trans0"
    lr_mult: 1
    decay_mult: 1
  }
  param {
    name: "b_trans0"
    lr_mult: 2
    decay_mult: 0
  }
  inner_product_param {
    num_output: 128
    weight_filler {
      type: "gaussian"
      std: 0.0098765
    }
    bias_filler {
      type: "constant"
      value: 0
    }
  }
}
layer {
  name: "ReLU239"
  type: "ReLU"
  bottom: "InnerProduct239"
  top: "InnerProduct239"
}
layer {
  name: "InnerProduct240"
  type: "InnerProduct"
  bottom: "InnerProduct239"
  top: "InnerProduct240"
  param {
    name: "w_e"
    lr_mult: 1
    decay_mult: 1
  }
  param {
    name: "b_e"
    lr_mult: 2
    decay_mult: 0
  }
  inner_product_param {
    num_output: 2
    weight_filler {
      type: "gaussian"
      std: 0.0098765
    }
    bias_filler {
      type: "constant"
      value: 0
    }
  }
}
layer {
  name: "ReLU240"
  type: "ReLU"
  bottom: "InnerProduct240"
  top: "InnerProduct240"
}
layer {
  name: "InnerProduct241"
  type: "InnerProduct"
  bottom: "Slice49"
  top: "InnerProduct241"
  param {
    name: "w_s"
    lr_mult: 1
    decay_mult: 1
  }
  param {
    name: "b_s"
    lr_mult: 2
    decay_mult: 0
  }
  inner_product_param {
    num_output: 128
    weight_filler {
      type: "gaussian"
      std: 0.0098765
    }
    bias_filler {
      type: "constant"
      value: 0
    }
  }
}
layer {
  name: "ReLU241"
  type: "ReLU"
  bottom: "InnerProduct241"
  top: "InnerProduct241"
}
layer {
  name: "InnerProduct242"
  type: "InnerProduct"
  bottom: "InnerProduct241"
  top: "InnerProduct242"
  param {
    name: "w_trans0"
    lr_mult: 1
    decay_mult: 1
  }
  param {
    name: "b_trans0"
    lr_mult: 2
    decay_mult: 0
  }
  inner_product_param {
    num_output: 128
    weight_filler {
      type: "gaussian"
      std: 0.0098765
    }
    bias_filler {
      type: "constant"
      value: 0
    }
  }
}
layer {
  name: "ReLU242"
  type: "ReLU"
  bottom: "InnerProduct242"
  top: "InnerProduct242"
}
layer {
  name: "InnerProduct243"
  type: "InnerProduct"
  bottom: "InnerProduct242"
  top: "InnerProduct243"
  param {
    name: "w_trans0"
    lr_mult: 1
    decay_mult: 1
  }
  param {
    name: "b_trans0"
    lr_mult: 2
    decay_mult: 0
  }
  inner_product_param {
    num_output: 128
    weight_filler {
      type: "gaussian"
      std: 0.0098765
    }
    bias_filler {
      type: "constant"
      value: 0
    }
  }
}
layer {
  name: "ReLU243"
  type: "ReLU"
  bottom: "InnerProduct243"
  top: "InnerProduct243"
}
layer {
  name: "InnerProduct244"
  type: "InnerProduct"
  bottom: "InnerProduct243"
  top: "InnerProduct244"
  param {
    name: "w_trans0"
    lr_mult: 1
    decay_mult: 1
  }
  param {
    name: "b_trans0"
    lr_mult: 2
    decay_mult: 0
  }
  inner_product_param {
    num_output: 128
    weight_filler {
      type: "gaussian"
      std: 0.0098765
    }
    bias_filler {
      type: "constant"
      value: 0
    }
  }
}
layer {
  name: "ReLU244"
  type: "ReLU"
  bottom: "InnerProduct244"
  top: "InnerProduct244"
}
layer {
  name: "InnerProduct245"
  type: "InnerProduct"
  bottom: "InnerProduct244"
  top: "InnerProduct245"
  param {
    name: "w_e"
    lr_mult: 1
    decay_mult: 1
  }
  param {
    name: "b_e"
    lr_mult: 2
    decay_mult: 0
  }
  inner_product_param {
    num_output: 2
    weight_filler {
      type: "gaussian"
      std: 0.0098765
    }
    bias_filler {
      type: "constant"
      value: 0
    }
  }
}
layer {
  name: "ReLU245"
  type: "ReLU"
  bottom: "InnerProduct245"
  top: "InnerProduct245"
}
layer {
  name: "InnerProduct246"
  type: "InnerProduct"
  bottom: "Slice50"
  top: "InnerProduct246"
  param {
    name: "w_s"
    lr_mult: 1
    decay_mult: 1
  }
  param {
    name: "b_s"
    lr_mult: 2
    decay_mult: 0
  }
  inner_product_param {
    num_output: 128
    weight_filler {
      type: "gaussian"
      std: 0.0098765
    }
    bias_filler {
      type: "constant"
      value: 0
    }
  }
}
layer {
  name: "ReLU246"
  type: "ReLU"
  bottom: "InnerProduct246"
  top: "InnerProduct246"
}
layer {
  name: "InnerProduct247"
  type: "InnerProduct"
  bottom: "InnerProduct246"
  top: "InnerProduct247"
  param {
    name: "w_trans0"
    lr_mult: 1
    decay_mult: 1
  }
  param {
    name: "b_trans0"
    lr_mult: 2
    decay_mult: 0
  }
  inner_product_param {
    num_output: 128
    weight_filler {
      type: "gaussian"
      std: 0.0098765
    }
    bias_filler {
      type: "constant"
      value: 0
    }
  }
}
layer {
  name: "ReLU247"
  type: "ReLU"
  bottom: "InnerProduct247"
  top: "InnerProduct247"
}
layer {
  name: "InnerProduct248"
  type: "InnerProduct"
  bottom: "InnerProduct247"
  top: "InnerProduct248"
  param {
    name: "w_trans0"
    lr_mult: 1
    decay_mult: 1
  }
  param {
    name: "b_trans0"
    lr_mult: 2
    decay_mult: 0
  }
  inner_product_param {
    num_output: 128
    weight_filler {
      type: "gaussian"
      std: 0.0098765
    }
    bias_filler {
      type: "constant"
      value: 0
    }
  }
}
layer {
  name: "ReLU248"
  type: "ReLU"
  bottom: "InnerProduct248"
  top: "InnerProduct248"
}
layer {
  name: "InnerProduct249"
  type: "InnerProduct"
  bottom: "InnerProduct248"
  top: "InnerProduct249"
  param {
    name: "w_trans0"
    lr_mult: 1
    decay_mult: 1
  }
  param {
    name: "b_trans0"
    lr_mult: 2
    decay_mult: 0
  }
  inner_product_param {
    num_output: 128
    weight_filler {
      type: "gaussian"
      std: 0.0098765
    }
    bias_filler {
      type: "constant"
      value: 0
    }
  }
}
layer {
  name: "ReLU249"
  type: "ReLU"
  bottom: "InnerProduct249"
  top: "InnerProduct249"
}
layer {
  name: "InnerProduct250"
  type: "InnerProduct"
  bottom: "InnerProduct249"
  top: "InnerProduct250"
  param {
    name: "w_e"
    lr_mult: 1
    decay_mult: 1
  }
  param {
    name: "b_e"
    lr_mult: 2
    decay_mult: 0
  }
  inner_product_param {
    num_output: 2
    weight_filler {
      type: "gaussian"
      std: 0.0098765
    }
    bias_filler {
      type: "constant"
      value: 0
    }
  }
}
layer {
  name: "ReLU250"
  type: "ReLU"
  bottom: "InnerProduct250"
  top: "InnerProduct250"
}
layer {
  name: "InnerProduct251"
  type: "InnerProduct"
  bottom: "Slice51"
  top: "InnerProduct251"
  param {
    name: "w_s"
    lr_mult: 1
    decay_mult: 1
  }
  param {
    name: "b_s"
    lr_mult: 2
    decay_mult: 0
  }
  inner_product_param {
    num_output: 128
    weight_filler {
      type: "gaussian"
      std: 0.0098765
    }
    bias_filler {
      type: "constant"
      value: 0
    }
  }
}
layer {
  name: "ReLU251"
  type: "ReLU"
  bottom: "InnerProduct251"
  top: "InnerProduct251"
}
layer {
  name: "InnerProduct252"
  type: "InnerProduct"
  bottom: "InnerProduct251"
  top: "InnerProduct252"
  param {
    name: "w_trans0"
    lr_mult: 1
    decay_mult: 1
  }
  param {
    name: "b_trans0"
    lr_mult: 2
    decay_mult: 0
  }
  inner_product_param {
    num_output: 128
    weight_filler {
      type: "gaussian"
      std: 0.0098765
    }
    bias_filler {
      type: "constant"
      value: 0
    }
  }
}
layer {
  name: "ReLU252"
  type: "ReLU"
  bottom: "InnerProduct252"
  top: "InnerProduct252"
}
layer {
  name: "InnerProduct253"
  type: "InnerProduct"
  bottom: "InnerProduct252"
  top: "InnerProduct253"
  param {
    name: "w_trans0"
    lr_mult: 1
    decay_mult: 1
  }
  param {
    name: "b_trans0"
    lr_mult: 2
    decay_mult: 0
  }
  inner_product_param {
    num_output: 128
    weight_filler {
      type: "gaussian"
      std: 0.0098765
    }
    bias_filler {
      type: "constant"
      value: 0
    }
  }
}
layer {
  name: "ReLU253"
  type: "ReLU"
  bottom: "InnerProduct253"
  top: "InnerProduct253"
}
layer {
  name: "InnerProduct254"
  type: "InnerProduct"
  bottom: "InnerProduct253"
  top: "InnerProduct254"
  param {
    name: "w_trans0"
    lr_mult: 1
    decay_mult: 1
  }
  param {
    name: "b_trans0"
    lr_mult: 2
    decay_mult: 0
  }
  inner_product_param {
    num_output: 128
    weight_filler {
      type: "gaussian"
      std: 0.0098765
    }
    bias_filler {
      type: "constant"
      value: 0
    }
  }
}
layer {
  name: "ReLU254"
  type: "ReLU"
  bottom: "InnerProduct254"
  top: "InnerProduct254"
}
layer {
  name: "InnerProduct255"
  type: "InnerProduct"
  bottom: "InnerProduct254"
  top: "InnerProduct255"
  param {
    name: "w_e"
    lr_mult: 1
    decay_mult: 1
  }
  param {
    name: "b_e"
    lr_mult: 2
    decay_mult: 0
  }
  inner_product_param {
    num_output: 2
    weight_filler {
      type: "gaussian"
      std: 0.0098765
    }
    bias_filler {
      type: "constant"
      value: 0
    }
  }
}
layer {
  name: "ReLU255"
  type: "ReLU"
  bottom: "InnerProduct255"
  top: "InnerProduct255"
}
layer {
  name: "InnerProduct256"
  type: "InnerProduct"
  bottom: "Slice52"
  top: "InnerProduct256"
  param {
    name: "w_s"
    lr_mult: 1
    decay_mult: 1
  }
  param {
    name: "b_s"
    lr_mult: 2
    decay_mult: 0
  }
  inner_product_param {
    num_output: 128
    weight_filler {
      type: "gaussian"
      std: 0.0098765
    }
    bias_filler {
      type: "constant"
      value: 0
    }
  }
}
layer {
  name: "ReLU256"
  type: "ReLU"
  bottom: "InnerProduct256"
  top: "InnerProduct256"
}
layer {
  name: "InnerProduct257"
  type: "InnerProduct"
  bottom: "InnerProduct256"
  top: "InnerProduct257"
  param {
    name: "w_trans0"
    lr_mult: 1
    decay_mult: 1
  }
  param {
    name: "b_trans0"
    lr_mult: 2
    decay_mult: 0
  }
  inner_product_param {
    num_output: 128
    weight_filler {
      type: "gaussian"
      std: 0.0098765
    }
    bias_filler {
      type: "constant"
      value: 0
    }
  }
}
layer {
  name: "ReLU257"
  type: "ReLU"
  bottom: "InnerProduct257"
  top: "InnerProduct257"
}
layer {
  name: "InnerProduct258"
  type: "InnerProduct"
  bottom: "InnerProduct257"
  top: "InnerProduct258"
  param {
    name: "w_trans0"
    lr_mult: 1
    decay_mult: 1
  }
  param {
    name: "b_trans0"
    lr_mult: 2
    decay_mult: 0
  }
  inner_product_param {
    num_output: 128
    weight_filler {
      type: "gaussian"
      std: 0.0098765
    }
    bias_filler {
      type: "constant"
      value: 0
    }
  }
}
layer {
  name: "ReLU258"
  type: "ReLU"
  bottom: "InnerProduct258"
  top: "InnerProduct258"
}
layer {
  name: "InnerProduct259"
  type: "InnerProduct"
  bottom: "InnerProduct258"
  top: "InnerProduct259"
  param {
    name: "w_trans0"
    lr_mult: 1
    decay_mult: 1
  }
  param {
    name: "b_trans0"
    lr_mult: 2
    decay_mult: 0
  }
  inner_product_param {
    num_output: 128
    weight_filler {
      type: "gaussian"
      std: 0.0098765
    }
    bias_filler {
      type: "constant"
      value: 0
    }
  }
}
layer {
  name: "ReLU259"
  type: "ReLU"
  bottom: "InnerProduct259"
  top: "InnerProduct259"
}
layer {
  name: "InnerProduct260"
  type: "InnerProduct"
  bottom: "InnerProduct259"
  top: "InnerProduct260"
  param {
    name: "w_e"
    lr_mult: 1
    decay_mult: 1
  }
  param {
    name: "b_e"
    lr_mult: 2
    decay_mult: 0
  }
  inner_product_param {
    num_output: 2
    weight_filler {
      type: "gaussian"
      std: 0.0098765
    }
    bias_filler {
      type: "constant"
      value: 0
    }
  }
}
layer {
  name: "ReLU260"
  type: "ReLU"
  bottom: "InnerProduct260"
  top: "InnerProduct260"
}
layer {
  name: "InnerProduct261"
  type: "InnerProduct"
  bottom: "Slice53"
  top: "InnerProduct261"
  param {
    name: "w_s"
    lr_mult: 1
    decay_mult: 1
  }
  param {
    name: "b_s"
    lr_mult: 2
    decay_mult: 0
  }
  inner_product_param {
    num_output: 128
    weight_filler {
      type: "gaussian"
      std: 0.0098765
    }
    bias_filler {
      type: "constant"
      value: 0
    }
  }
}
layer {
  name: "ReLU261"
  type: "ReLU"
  bottom: "InnerProduct261"
  top: "InnerProduct261"
}
layer {
  name: "InnerProduct262"
  type: "InnerProduct"
  bottom: "InnerProduct261"
  top: "InnerProduct262"
  param {
    name: "w_trans0"
    lr_mult: 1
    decay_mult: 1
  }
  param {
    name: "b_trans0"
    lr_mult: 2
    decay_mult: 0
  }
  inner_product_param {
    num_output: 128
    weight_filler {
      type: "gaussian"
      std: 0.0098765
    }
    bias_filler {
      type: "constant"
      value: 0
    }
  }
}
layer {
  name: "ReLU262"
  type: "ReLU"
  bottom: "InnerProduct262"
  top: "InnerProduct262"
}
layer {
  name: "InnerProduct263"
  type: "InnerProduct"
  bottom: "InnerProduct262"
  top: "InnerProduct263"
  param {
    name: "w_trans0"
    lr_mult: 1
    decay_mult: 1
  }
  param {
    name: "b_trans0"
    lr_mult: 2
    decay_mult: 0
  }
  inner_product_param {
    num_output: 128
    weight_filler {
      type: "gaussian"
      std: 0.0098765
    }
    bias_filler {
      type: "constant"
      value: 0
    }
  }
}
layer {
  name: "ReLU263"
  type: "ReLU"
  bottom: "InnerProduct263"
  top: "InnerProduct263"
}
layer {
  name: "InnerProduct264"
  type: "InnerProduct"
  bottom: "InnerProduct263"
  top: "InnerProduct264"
  param {
    name: "w_trans0"
    lr_mult: 1
    decay_mult: 1
  }
  param {
    name: "b_trans0"
    lr_mult: 2
    decay_mult: 0
  }
  inner_product_param {
    num_output: 128
    weight_filler {
      type: "gaussian"
      std: 0.0098765
    }
    bias_filler {
      type: "constant"
      value: 0
    }
  }
}
layer {
  name: "ReLU264"
  type: "ReLU"
  bottom: "InnerProduct264"
  top: "InnerProduct264"
}
layer {
  name: "InnerProduct265"
  type: "InnerProduct"
  bottom: "InnerProduct264"
  top: "InnerProduct265"
  param {
    name: "w_e"
    lr_mult: 1
    decay_mult: 1
  }
  param {
    name: "b_e"
    lr_mult: 2
    decay_mult: 0
  }
  inner_product_param {
    num_output: 2
    weight_filler {
      type: "gaussian"
      std: 0.0098765
    }
    bias_filler {
      type: "constant"
      value: 0
    }
  }
}
layer {
  name: "ReLU265"
  type: "ReLU"
  bottom: "InnerProduct265"
  top: "InnerProduct265"
}
layer {
  name: "InnerProduct266"
  type: "InnerProduct"
  bottom: "Slice54"
  top: "InnerProduct266"
  param {
    name: "w_s"
    lr_mult: 1
    decay_mult: 1
  }
  param {
    name: "b_s"
    lr_mult: 2
    decay_mult: 0
  }
  inner_product_param {
    num_output: 128
    weight_filler {
      type: "gaussian"
      std: 0.0098765
    }
    bias_filler {
      type: "constant"
      value: 0
    }
  }
}
layer {
  name: "ReLU266"
  type: "ReLU"
  bottom: "InnerProduct266"
  top: "InnerProduct266"
}
layer {
  name: "InnerProduct267"
  type: "InnerProduct"
  bottom: "InnerProduct266"
  top: "InnerProduct267"
  param {
    name: "w_trans0"
    lr_mult: 1
    decay_mult: 1
  }
  param {
    name: "b_trans0"
    lr_mult: 2
    decay_mult: 0
  }
  inner_product_param {
    num_output: 128
    weight_filler {
      type: "gaussian"
      std: 0.0098765
    }
    bias_filler {
      type: "constant"
      value: 0
    }
  }
}
layer {
  name: "ReLU267"
  type: "ReLU"
  bottom: "InnerProduct267"
  top: "InnerProduct267"
}
layer {
  name: "InnerProduct268"
  type: "InnerProduct"
  bottom: "InnerProduct267"
  top: "InnerProduct268"
  param {
    name: "w_trans0"
    lr_mult: 1
    decay_mult: 1
  }
  param {
    name: "b_trans0"
    lr_mult: 2
    decay_mult: 0
  }
  inner_product_param {
    num_output: 128
    weight_filler {
      type: "gaussian"
      std: 0.0098765
    }
    bias_filler {
      type: "constant"
      value: 0
    }
  }
}
layer {
  name: "ReLU268"
  type: "ReLU"
  bottom: "InnerProduct268"
  top: "InnerProduct268"
}
layer {
  name: "InnerProduct269"
  type: "InnerProduct"
  bottom: "InnerProduct268"
  top: "InnerProduct269"
  param {
    name: "w_trans0"
    lr_mult: 1
    decay_mult: 1
  }
  param {
    name: "b_trans0"
    lr_mult: 2
    decay_mult: 0
  }
  inner_product_param {
    num_output: 128
    weight_filler {
      type: "gaussian"
      std: 0.0098765
    }
    bias_filler {
      type: "constant"
      value: 0
    }
  }
}
layer {
  name: "ReLU269"
  type: "ReLU"
  bottom: "InnerProduct269"
  top: "InnerProduct269"
}
layer {
  name: "InnerProduct270"
  type: "InnerProduct"
  bottom: "InnerProduct269"
  top: "InnerProduct270"
  param {
    name: "w_e"
    lr_mult: 1
    decay_mult: 1
  }
  param {
    name: "b_e"
    lr_mult: 2
    decay_mult: 0
  }
  inner_product_param {
    num_output: 2
    weight_filler {
      type: "gaussian"
      std: 0.0098765
    }
    bias_filler {
      type: "constant"
      value: 0
    }
  }
}
layer {
  name: "ReLU270"
  type: "ReLU"
  bottom: "InnerProduct270"
  top: "InnerProduct270"
}
layer {
  name: "InnerProduct271"
  type: "InnerProduct"
  bottom: "Slice55"
  top: "InnerProduct271"
  param {
    name: "w_s"
    lr_mult: 1
    decay_mult: 1
  }
  param {
    name: "b_s"
    lr_mult: 2
    decay_mult: 0
  }
  inner_product_param {
    num_output: 128
    weight_filler {
      type: "gaussian"
      std: 0.0098765
    }
    bias_filler {
      type: "constant"
      value: 0
    }
  }
}
layer {
  name: "ReLU271"
  type: "ReLU"
  bottom: "InnerProduct271"
  top: "InnerProduct271"
}
layer {
  name: "InnerProduct272"
  type: "InnerProduct"
  bottom: "InnerProduct271"
  top: "InnerProduct272"
  param {
    name: "w_trans0"
    lr_mult: 1
    decay_mult: 1
  }
  param {
    name: "b_trans0"
    lr_mult: 2
    decay_mult: 0
  }
  inner_product_param {
    num_output: 128
    weight_filler {
      type: "gaussian"
      std: 0.0098765
    }
    bias_filler {
      type: "constant"
      value: 0
    }
  }
}
layer {
  name: "ReLU272"
  type: "ReLU"
  bottom: "InnerProduct272"
  top: "InnerProduct272"
}
layer {
  name: "InnerProduct273"
  type: "InnerProduct"
  bottom: "InnerProduct272"
  top: "InnerProduct273"
  param {
    name: "w_trans0"
    lr_mult: 1
    decay_mult: 1
  }
  param {
    name: "b_trans0"
    lr_mult: 2
    decay_mult: 0
  }
  inner_product_param {
    num_output: 128
    weight_filler {
      type: "gaussian"
      std: 0.0098765
    }
    bias_filler {
      type: "constant"
      value: 0
    }
  }
}
layer {
  name: "ReLU273"
  type: "ReLU"
  bottom: "InnerProduct273"
  top: "InnerProduct273"
}
layer {
  name: "InnerProduct274"
  type: "InnerProduct"
  bottom: "InnerProduct273"
  top: "InnerProduct274"
  param {
    name: "w_trans0"
    lr_mult: 1
    decay_mult: 1
  }
  param {
    name: "b_trans0"
    lr_mult: 2
    decay_mult: 0
  }
  inner_product_param {
    num_output: 128
    weight_filler {
      type: "gaussian"
      std: 0.0098765
    }
    bias_filler {
      type: "constant"
      value: 0
    }
  }
}
layer {
  name: "ReLU274"
  type: "ReLU"
  bottom: "InnerProduct274"
  top: "InnerProduct274"
}
layer {
  name: "InnerProduct275"
  type: "InnerProduct"
  bottom: "InnerProduct274"
  top: "InnerProduct275"
  param {
    name: "w_e"
    lr_mult: 1
    decay_mult: 1
  }
  param {
    name: "b_e"
    lr_mult: 2
    decay_mult: 0
  }
  inner_product_param {
    num_output: 2
    weight_filler {
      type: "gaussian"
      std: 0.0098765
    }
    bias_filler {
      type: "constant"
      value: 0
    }
  }
}
layer {
  name: "ReLU275"
  type: "ReLU"
  bottom: "InnerProduct275"
  top: "InnerProduct275"
}
layer {
  name: "InnerProduct276"
  type: "InnerProduct"
  bottom: "Slice56"
  top: "InnerProduct276"
  param {
    name: "w_s"
    lr_mult: 1
    decay_mult: 1
  }
  param {
    name: "b_s"
    lr_mult: 2
    decay_mult: 0
  }
  inner_product_param {
    num_output: 128
    weight_filler {
      type: "gaussian"
      std: 0.0098765
    }
    bias_filler {
      type: "constant"
      value: 0
    }
  }
}
layer {
  name: "ReLU276"
  type: "ReLU"
  bottom: "InnerProduct276"
  top: "InnerProduct276"
}
layer {
  name: "InnerProduct277"
  type: "InnerProduct"
  bottom: "InnerProduct276"
  top: "InnerProduct277"
  param {
    name: "w_trans0"
    lr_mult: 1
    decay_mult: 1
  }
  param {
    name: "b_trans0"
    lr_mult: 2
    decay_mult: 0
  }
  inner_product_param {
    num_output: 128
    weight_filler {
      type: "gaussian"
      std: 0.0098765
    }
    bias_filler {
      type: "constant"
      value: 0
    }
  }
}
layer {
  name: "ReLU277"
  type: "ReLU"
  bottom: "InnerProduct277"
  top: "InnerProduct277"
}
layer {
  name: "InnerProduct278"
  type: "InnerProduct"
  bottom: "InnerProduct277"
  top: "InnerProduct278"
  param {
    name: "w_trans0"
    lr_mult: 1
    decay_mult: 1
  }
  param {
    name: "b_trans0"
    lr_mult: 2
    decay_mult: 0
  }
  inner_product_param {
    num_output: 128
    weight_filler {
      type: "gaussian"
      std: 0.0098765
    }
    bias_filler {
      type: "constant"
      value: 0
    }
  }
}
layer {
  name: "ReLU278"
  type: "ReLU"
  bottom: "InnerProduct278"
  top: "InnerProduct278"
}
layer {
  name: "InnerProduct279"
  type: "InnerProduct"
  bottom: "InnerProduct278"
  top: "InnerProduct279"
  param {
    name: "w_trans0"
    lr_mult: 1
    decay_mult: 1
  }
  param {
    name: "b_trans0"
    lr_mult: 2
    decay_mult: 0
  }
  inner_product_param {
    num_output: 128
    weight_filler {
      type: "gaussian"
      std: 0.0098765
    }
    bias_filler {
      type: "constant"
      value: 0
    }
  }
}
layer {
  name: "ReLU279"
  type: "ReLU"
  bottom: "InnerProduct279"
  top: "InnerProduct279"
}
layer {
  name: "InnerProduct280"
  type: "InnerProduct"
  bottom: "InnerProduct279"
  top: "InnerProduct280"
  param {
    name: "w_e"
    lr_mult: 1
    decay_mult: 1
  }
  param {
    name: "b_e"
    lr_mult: 2
    decay_mult: 0
  }
  inner_product_param {
    num_output: 2
    weight_filler {
      type: "gaussian"
      std: 0.0098765
    }
    bias_filler {
      type: "constant"
      value: 0
    }
  }
}
layer {
  name: "ReLU280"
  type: "ReLU"
  bottom: "InnerProduct280"
  top: "InnerProduct280"
}
layer {
  name: "InnerProduct281"
  type: "InnerProduct"
  bottom: "Slice57"
  top: "InnerProduct281"
  param {
    name: "w_s"
    lr_mult: 1
    decay_mult: 1
  }
  param {
    name: "b_s"
    lr_mult: 2
    decay_mult: 0
  }
  inner_product_param {
    num_output: 128
    weight_filler {
      type: "gaussian"
      std: 0.0098765
    }
    bias_filler {
      type: "constant"
      value: 0
    }
  }
}
layer {
  name: "ReLU281"
  type: "ReLU"
  bottom: "InnerProduct281"
  top: "InnerProduct281"
}
layer {
  name: "InnerProduct282"
  type: "InnerProduct"
  bottom: "InnerProduct281"
  top: "InnerProduct282"
  param {
    name: "w_trans0"
    lr_mult: 1
    decay_mult: 1
  }
  param {
    name: "b_trans0"
    lr_mult: 2
    decay_mult: 0
  }
  inner_product_param {
    num_output: 128
    weight_filler {
      type: "gaussian"
      std: 0.0098765
    }
    bias_filler {
      type: "constant"
      value: 0
    }
  }
}
layer {
  name: "ReLU282"
  type: "ReLU"
  bottom: "InnerProduct282"
  top: "InnerProduct282"
}
layer {
  name: "InnerProduct283"
  type: "InnerProduct"
  bottom: "InnerProduct282"
  top: "InnerProduct283"
  param {
    name: "w_trans0"
    lr_mult: 1
    decay_mult: 1
  }
  param {
    name: "b_trans0"
    lr_mult: 2
    decay_mult: 0
  }
  inner_product_param {
    num_output: 128
    weight_filler {
      type: "gaussian"
      std: 0.0098765
    }
    bias_filler {
      type: "constant"
      value: 0
    }
  }
}
layer {
  name: "ReLU283"
  type: "ReLU"
  bottom: "InnerProduct283"
  top: "InnerProduct283"
}
layer {
  name: "InnerProduct284"
…
      value: 0
    }
  }
}
layer {
  name: "ReLU416"
  type: "ReLU"
  bottom: "InnerProduct416"
  top: "InnerProduct416"
}
layer {
  name: "InnerProduct417"
  type: "InnerProduct"
  bottom: "InnerProduct416"
  top: "InnerProduct417"
  param {
    name: "w_trans0"
    lr_mult: 1
    decay_mult: 1
  }
  param {
    name: "b_trans0"
    lr_mult: 2
    decay_mult: 0
  }
  inner_product_param {
    num_output: 128
    weight_filler {
      type: "gaussian"
      std: 0.0098765
    }
    bias_filler {
      type: "constant"
      value: 0
    }
  }
}
layer {
  name: "ReLU417"
  type: "ReLU"
  bottom: "InnerProduct417"
  top: "InnerProduct417"
}
layer {
  name: "InnerProduct418"
  type: "InnerProduct"
  bottom: "InnerProduct417"
  top: "InnerProduct418"
  param {
    name: "w_trans0"
    lr_mult: 1
    decay_mult: 1
  }
  param {
    name: "b_trans0"
    lr_mult: 2
    decay_mult: 0
  }
  inner_product_param {
    num_output: 128
    weight_filler {
      type: "gaussian"
      std: 0.0098765
    }
    bias_filler {
      type: "constant"
      value: 0
    }
  }
}
layer {
  name: "ReLU418"
  type: "ReLU"
  bottom: "InnerProduct418"
  top: "InnerProduct418"
}
layer {
  name: "InnerProduct419"
  type: "InnerProduct"
  bottom: "InnerProduct418"
  top: "InnerProduct419"
  param {
    name: "w_trans0"
    lr_mult: 1
    decay_mult: 1
  }
  param {
    name: "b_trans0"
    lr_mult: 2
    decay_mult: 0
  }
  inner_product_param {
    num_output: 128
    weight_filler {
      type: "gaussian"
      std: 0.0098765
    }
    bias_filler {
      type: "constant"
      value: 0
    }
  }
}
layer {
  name: "ReLU419"
  type: "ReLU"
  bottom: "InnerProduct419"
  top: "InnerProduct419"
}
layer {
  name: "InnerProduct420"
  type: "InnerProduct"
  bottom: "InnerProduct419"
  top: "InnerProduct420"
  param {
    name: "w_e"
    lr_mult: 1
    decay_mult: 1
  }
  param {
    name: "b_e"
    lr_mult: 2
    decay_mult: 0
  }
  inner_product_param {
    num_output: 2
    weight_filler {
      type: "gaussian"
      std: 0.0098765
    }
    bias_filler {
      type: "constant"
      value: 0
    }
  }
}
layer {
  name: "ReLU420"
  type: "ReLU"
  bottom: "InnerProduct420"
  top: "InnerProduct420"
}
layer {
  name: "InnerProduct421"
  type: "InnerProduct"
  bottom: "Slice85"
  top: "InnerProduct421"
  param {
    name: "w_s"
    lr_mult: 1
    decay_mult: 1
  }
  param {
    name: "b_s"
    lr_mult: 2
    decay_mult: 0
  }
  inner_product_param {
    num_output: 128
    weight_filler {
      type: "gaussian"
      std: 0.0098765
    }
    bias_filler {
      type: "constant"
      value: 0
    }
  }
}
layer {
  name: "ReLU421"
  type: "ReLU"
  bottom: "InnerProduct421"
  top: "InnerProduct421"
}
layer {
  name: "InnerProduct422"
  type: "InnerProduct"
  bottom: "InnerProduct421"
  top: "InnerProduct422"
  param {
    name: "w_trans0"
    lr_mult: 1
    decay_mult: 1
  }
  param {
    name: "b_trans0"
    lr_mult: 2
    decay_mult: 0
  }
  inner_product_param {
    num_output: 128
    weight_filler {
      type: "gaussian"
      std: 0.0098765
    }
    bias_filler {
      type: "constant"
      value: 0
    }
  }
}
layer {
  name: "ReLU422"
  type: "ReLU"
  bottom: "InnerProduct422"
  top: "InnerProduct422"
}
layer {
  name: "InnerProduct423"
  type: "InnerProduct"
  bottom: "InnerProduct422"
  top: "InnerProduct423"
  param {
    name: "w_trans0"
    lr_mult: 1
    decay_mult: 1
  }
  param {
    name: "b_trans0"
    lr_mult: 2
    decay_mult: 0
  }
  inner_product_param {
    num_output: 128
    weight_filler {
      type: "gaussian"
      std: 0.0098765
    }
    bias_filler {
      type: "constant"
      value: 0
    }
  }
}
layer {
  name: "ReLU423"
  type: "ReLU"
  bottom: "InnerProduct423"
  top: "InnerProduct423"
}
layer {
  name: "InnerProduct424"
  type: "InnerProduct"
  bottom: "InnerProduct423"
  top: "InnerProduct424"
  param {
    name: "w_trans0"
    lr_mult: 1
    decay_mult: 1
  }
  param {
    name: "b_trans0"
    lr_mult: 2
    decay_mult: 0
  }
  inner_product_param {
    num_output: 128
    weight_filler {
      type: "gaussian"
      std: 0.0098765
    }
    bias_filler {
      type: "constant"
      value: 0
    }
  }
}
layer {
  name: "ReLU424"
  type: "ReLU"
  bottom: "InnerProduct424"
  top: "InnerProduct424"
}
layer {
  name: "InnerProduct425"
  type: "InnerProduct"
  bottom: "InnerProduct424"
  top: "InnerProduct425"
  param {
    name: "w_e"
    lr_mult: 1
    decay_mult: 1
  }
  param {
    name: "b_e"
    lr_mult: 2
    decay_mult: 0
  }
  inner_product_param {
    num_output: 2
    weight_filler {
      type: "gaussian"
      std: 0.0098765
    }
    bias_filler {
      type: "constant"
      value: 0
    }
  }
}
layer {
  name: "ReLU425"
  type: "ReLU"
  bottom: "InnerProduct425"
  top: "InnerProduct425"
}
layer {
  name: "InnerProduct426"
  type: "InnerProduct"
  bottom: "Slice86"
  top: "InnerProduct426"
  param {
    name: "w_s"
    lr_mult: 1
    decay_mult: 1
  }
  param {
    name: "b_s"
    lr_mult: 2
    decay_mult: 0
  }
  inner_product_param {
    num_output: 128
    weight_filler {
      type: "gaussian"
      std: 0.0098765
    }
    bias_filler {
      type: "constant"
      value: 0
    }
  }
}
layer {
  name: "ReLU426"
  type: "ReLU"
  bottom: "InnerProduct426"
  top: "InnerProduct426"
}
layer {
  name: "InnerProduct427"
  type: "InnerProduct"
  bottom: "InnerProduct426"
  top: "InnerProduct427"
  param {
    name: "w_trans0"
    lr_mult: 1
    decay_mult: 1
  }
  param {
    name: "b_trans0"
    lr_mult: 2
    decay_mult: 0
  }
  inner_product_param {
    num_output: 128
    weight_filler {
      type: "gaussian"
      std: 0.0098765
    }
    bias_filler {
      type: "constant"
      value: 0
    }
  }
}
layer {
  name: "ReLU427"
  type: "ReLU"
  bottom: "InnerProduct427"
  top: "InnerProduct427"
}
layer {
  name: "InnerProduct428"
  type: "InnerProduct"
  bottom: "InnerProduct427"
  top: "InnerProduct428"
  param {
    name: "w_trans0"
    lr_mult: 1
    decay_mult: 1
  }
  param {
    name: "b_trans0"
    lr_mult: 2
    decay_mult: 0
  }
  inner_product_param {
    num_output: 128
    weight_filler {
      type: "gaussian"
      std: 0.0098765
    }
    bias_filler {
      type: "constant"
      value: 0
    }
  }
}
layer {
  name: "ReLU428"
  type: "ReLU"
  bottom: "InnerProduct428"
  top: "InnerProduct428"
}
layer {
  name: "InnerProduct429"
  type: "InnerProduct"
  bottom: "InnerProduct428"
  top: "InnerProduct429"
  param {
    name: "w_trans0"
    lr_mult: 1
    decay_mult: 1
  }
  param {
    name: "b_trans0"
    lr_mult: 2
    decay_mult: 0
  }
  inner_product_param {
    num_output: 128
    weight_filler {
      type: "gaussian"
      std: 0.0098765
    }
    bias_filler {
      type: "constant"
      value: 0
    }
  }
}
layer {
  name: "ReLU429"
  type: "ReLU"
  bottom: "InnerProduct429"
  top: "InnerProduct429"
}
layer {
  name: "InnerProduct430"
  type: "InnerProduct"
  bottom: "InnerProduct429"
  top: "InnerProduct430"
  param {
    name: "w_e"
    lr_mult: 1
    decay_mult: 1
  }
  param {
    name: "b_e"
    lr_mult: 2
    decay_mult: 0
  }
  inner_product_param {
    num_output: 2
    weight_filler {
      type: "gaussian"
      std: 0.0098765
    }
    bias_filler {
      type: "constant"
      value: 0
    }
  }
}
layer {
  name: "ReLU430"
  type: "ReLU"
  bottom: "InnerProduct430"
  top: "InnerProduct430"
}
layer {
  name: "InnerProduct431"
  type: "InnerProduct"
  bottom: "Slice87"
  top: "InnerProduct431"
  param {
    name: "w_s"
    lr_mult: 1
    decay_mult: 1
  }
  param {
    name: "b_s"
    lr_mult: 2
    decay_mult: 0
  }
  inner_product_param {
    num_output: 128
    weight_filler {
      type: "gaussian"
      std: 0.0098765
    }
    bias_filler {
      type: "constant"
      value: 0
    }
  }
}
layer {
  name: "ReLU431"
  type: "ReLU"
  bottom: "InnerProduct431"
  top: "InnerProduct431"
}
layer {
  name: "InnerProduct432"
  type: "InnerProduct"
  bottom: "InnerProduct431"
  top: "InnerProduct432"
  param {
    name: "w_trans0"
    lr_mult: 1
    decay_mult: 1
  }
  param {
    name: "b_trans0"
    lr_mult: 2
    decay_mult: 0
  }
  inner_product_param {
    num_output: 128
    weight_filler {
      type: "gaussian"
      std: 0.0098765
    }
    bias_filler {
      type: "constant"
      value: 0
    }
  }
}
layer {
  name: "ReLU432"
  type: "ReLU"
  bottom: "InnerProduct432"
  top: "InnerProduct432"
}
layer {
  name: "InnerProduct433"
  type: "InnerProduct"
  bottom: "InnerProduct432"
  top: "InnerProduct433"
  param {
    name: "w_trans0"
    lr_mult: 1
    decay_mult: 1
  }
  param {
    name: "b_trans0"
    lr_mult: 2
    decay_mult: 0
  }
  inner_product_param {
    num_output: 128
    weight_filler {
      type: "gaussian"
      std: 0.0098765
    }
    bias_filler {
      type: "constant"
      value: 0
    }
  }
}
layer {
  name: "ReLU433"
  type: "ReLU"
  bottom: "InnerProduct433"
  top: "InnerProduct433"
}
layer {
  name: "InnerProduct434"
  type: "InnerProduct"
  bottom: "InnerProduct433"
  top: "InnerProduct434"
  param {
    name: "w_trans0"
    lr_mult: 1
    decay_mult: 1
  }
  param {
    name: "b_trans0"
    lr_mult: 2
    decay_mult: 0
  }
  inner_product_param {
    num_output: 128
    weight_filler {
      type: "gaussian"
      std: 0.0098765
    }
    bias_filler {
      type: "constant"
      value: 0
    }
  }
}
layer {
  name: "ReLU434"
  type: "ReLU"
  bottom: "InnerProduct434"
  top: "InnerProduct434"
}
layer {
  name: "InnerProduct435"
  type: "InnerProduct"
  bottom: "InnerProduct434"
  top: "InnerProduct435"
  param {
    name: "w_e"
    lr_mult: 1
    decay_mult: 1
  }
  param {
    name: "b_e"
    lr_mult: 2
    decay_mult: 0
  }
  inner_product_param {
    num_output: 2
    weight_filler {
      type: "gaussian"
      std: 0.0098765
    }
    bias_filler {
      type: "constant"
      value: 0
    }
  }
}
layer {
  name: "ReLU435"
  type: "ReLU"
  bottom: "InnerProduct435"
  top: "InnerProduct435"
}
layer {
  name: "InnerProduct436"
  type: "InnerProduct"
  bottom: "Slice88"
  top: "InnerProduct436"
  param {
    name: "w_s"
    lr_mult: 1
    decay_mult: 1
  }
  param {
    name: "b_s"
    lr_mult: 2
    decay_mult: 0
  }
  inner_product_param {
    num_output: 128
    weight_filler {
      type: "gaussian"
      std: 0.0098765
    }
    bias_filler {
      type: "constant"
      value: 0
    }
  }
}
layer {
  name: "ReLU436"
  type: "ReLU"
  bottom: "InnerProduct436"
  top: "InnerProduct436"
}
layer {
  name: "InnerProduct437"
  type: "InnerProduct"
  bottom: "InnerProduct436"
  top: "InnerProduct437"
  param {
    name: "w_trans0"
    lr_mult: 1
    decay_mult: 1
  }
  param {
    name: "b_trans0"
    lr_mult: 2
    decay_mult: 0
  }
  inner_product_param {
    num_output: 128
    weight_filler {
      type: "gaussian"
      std: 0.0098765
    }
    bias_filler {
      type: "constant"
      value: 0
    }
  }
}
layer {
  name: "ReLU437"
  type: "ReLU"
  bottom: "InnerProduct437"
  top: "InnerProduct437"
}
layer {
  name: "InnerProduct438"
  type: "InnerProduct"
  bottom: "InnerProduct437"
  top: "InnerProduct438"
  param {
    name: "w_trans0"
    lr_mult: 1
    decay_mult: 1
  }
  param {
    name: "b_trans0"
    lr_mult: 2
    decay_mult: 0
  }
  inner_product_param {
    num_output: 128
    weight_filler {
      type: "gaussian"
      std: 0.0098765
    }
    bias_filler {
      type: "constant"
      value: 0
    }
  }
}
layer {
  name: "ReLU438"
  type: "ReLU"
  bottom: "InnerProduct438"
  top: "InnerProduct438"
}
layer {
  name: "InnerProduct439"
  type: "InnerProduct"
  bottom: "InnerProduct438"
  top: "InnerProduct439"
  param {
    name: "w_trans0"
    lr_mult: 1
    decay_mult: 1
  }
  param {
    name: "b_trans0"
    lr_mult: 2
    decay_mult: 0
  }
  inner_product_param {
    num_output: 128
    weight_filler {
      type: "gaussian"
      std: 0.0098765
    }
    bias_filler {
      type: "constant"
      value: 0
    }
  }
}
layer {
  name: "ReLU439"
  type: "ReLU"
  bottom: "InnerProduct439"
  top: "InnerProduct439"
}
layer {
  name: "InnerProduct440"
  type: "InnerProduct"
  bottom: "InnerProduct439"
  top: "InnerProduct440"
  param {
    name: "w_e"
    lr_mult: 1
    decay_mult: 1
  }
  param {
    name: "b_e"
    lr_mult: 2
    decay_mult: 0
  }
  inner_product_param {
    num_output: 2
    weight_filler {
      type: "gaussian"
      std: 0.0098765
    }
    bias_filler {
      type: "constant"
      value: 0
    }
  }
}
layer {
  name: "ReLU440"
  type: "ReLU"
  bottom: "InnerProduct440"
  top: "InnerProduct440"
}
layer {
  name: "InnerProduct441"
  type: "InnerProduct"
  bottom: "Slice89"
  top: "InnerProduct441"
  param {
    name: "w_s"
    lr_mult: 1
    decay_mult: 1
  }
  param {
    name: "b_s"
    lr_mult: 2
    decay_mult: 0
  }
  inner_product_param {
    num_output: 128
    weight_filler {
      type: "gaussian"
      std: 0.0098765
    }
    bias_filler {
      type: "constant"
      value: 0
    }
  }
}
layer {
  name: "ReLU441"
  type: "ReLU"
  bottom: "InnerProduct441"
  top: "InnerProduct441"
}
layer {
  name: "InnerProduct442"
  type: "InnerProduct"
  bottom: "InnerProduct441"
  top: "InnerProduct442"
  param {
    name: "w_trans0"
    lr_mult: 1
    decay_mult: 1
  }
  param {
    name: "b_trans0"
    lr_mult: 2
    decay_mult: 0
  }
  inner_product_param {
    num_output: 128
    weight_filler {
      type: "gaussian"
      std: 0.0098765
    }
    bias_filler {
      type: "constant"
      value: 0
    }
  }
}
layer {
  name: "ReLU442"
  type: "ReLU"
  bottom: "InnerProduct442"
  top: "InnerProduct442"
}
layer {
  name: "InnerProduct443"
  type: "InnerProduct"
  bottom: "InnerProduct442"
  top: "InnerProduct443"
  param {
    name: "w_trans0"
    lr_mult: 1
    decay_mult: 1
  }
  param {
    name: "b_trans0"
    lr_mult: 2
    decay_mult: 0
  }
  inner_product_param {
    num_output: 128
    weight_filler {
      type: "gaussian"
      std: 0.0098765
    }
    bias_filler {
      type: "constant"
      value: 0
    }
  }
}
layer {
  name: "ReLU443"
  type: "ReLU"
  bottom: "InnerProduct443"
  top: "InnerProduct443"
}
layer {
  name: "InnerProduct444"
  type: "InnerProduct"
  bottom: "InnerProduct443"
  top: "InnerProduct444"
  param {
    name: "w_trans0"
    lr_mult: 1
    decay_mult: 1
  }
  param {
    name: "b_trans0"
    lr_mult: 2
    decay_mult: 0
  }
  inner_product_param {
    num_output: 128
    weight_filler {
      type: "gaussian"
      std: 0.0098765
    }
    bias_filler {
      type: "constant"
      value: 0
    }
  }
}
layer {
  name: "ReLU444"
  type: "ReLU"
  bottom: "InnerProduct444"
  top: "InnerProduct444"
}
layer {
  name: "InnerProduct445"
  type: "InnerProduct"
  bottom: "InnerProduct444"
  top: "InnerProduct445"
  param {
    name: "w_e"
    lr_mult: 1
    decay_mult: 1
  }
  param {
    name: "b_e"
    lr_mult: 2
    decay_mult: 0
  }
  inner_product_param {
    num_output: 2
    weight_filler {
      type: "gaussian"
      std: 0.0098765
    }
    bias_filler {
      type: "constant"
      value: 0
    }
  }
}
layer {
  name: "ReLU445"
  type: "ReLU"
  bottom: "InnerProduct445"
  top: "InnerProduct445"
}
layer {
  name: "InnerProduct446"
  type: "InnerProduct"
  bottom: "Slice90"
  top: "InnerProduct446"
  param {
    name: "w_s"
    lr_mult: 1
    decay_mult: 1
  }
  param {
    name: "b_s"
    lr_mult: 2
    decay_mult: 0
  }
  inner_product_param {
    num_output: 128
    weight_filler {
      type: "gaussian"
      std: 0.0098765
    }
    bias_filler {
      type: "constant"
      value: 0
    }
  }
}
layer {
  name: "ReLU446"
  type: "ReLU"
  bottom: "InnerProduct446"
  top: "InnerProduct446"
}
layer {
  name: "InnerProduct447"
  type: "InnerProduct"
  bottom: "InnerProduct446"
  top: "InnerProduct447"
  param {
    name: "w_trans0"
    lr_mult: 1
    decay_mult: 1
  }
  param {
    name: "b_trans0"
    lr_mult: 2
    decay_mult: 0
  }
  inner_product_param {
    num_output: 128
    weight_filler {
      type: "gaussian"
      std: 0.0098765
    }
    bias_filler {
      type: "constant"
      value: 0
    }
  }
}
layer {
  name: "ReLU447"
  type: "ReLU"
  bottom: "InnerProduct447"
  top: "InnerProduct447"
}
layer {
  name: "InnerProduct448"
  type: "InnerProduct"
  bottom: "InnerProduct447"
  top: "InnerProduct448"
  param {
    name: "w_trans0"
    lr_mult: 1
    decay_mult: 1
  }
  param {
    name: "b_trans0"
    lr_mult: 2
    decay_mult: 0
  }
  inner_product_param {
    num_output: 128
    weight_filler {
      type: "gaussian"
      std: 0.0098765
    }
    bias_filler {
      type: "constant"
      value: 0
    }
  }
}
layer {
  name: "ReLU448"
  type: "ReLU"
  bottom: "InnerProduct448"
  top: "InnerProduct448"
}
layer {
  name: "InnerProduct449"
  type: "InnerProduct"
  bottom: "InnerProduct448"
  top: "InnerProduct449"
  param {
    name: "w_trans0"
    lr_mult: 1
    decay_mult: 1
  }
  param {
    name: "b_trans0"
    lr_mult: 2
    decay_mult: 0
  }
  inner_product_param {
    num_output: 128
    weight_filler {
      type: "gaussian"
      std: 0.0098765
    }
    bias_filler {
      type: "constant"
      value: 0
    }
  }
}
layer {
  name: "ReLU449"
  type: "ReLU"
  bottom: "InnerProduct449"
  top: "InnerProduct449"
}
layer {
  name: "InnerProduct450"
  type: "InnerProduct"
  bottom: "InnerProduct449"
  top: "InnerProduct450"
  param {
    name: "w_e"
    lr_mult: 1
    decay_mult: 1
  }
  param {
    name: "b_e"
    lr_mult: 2
    decay_mult: 0
  }
  inner_product_param {
    num_output: 2
    weight_filler {
      type: "gaussian"
      std: 0.0098765
    }
    bias_filler {
      type: "constant"
      value: 0
    }
  }
}
layer {
  name: "ReLU450"
  type: "ReLU"
  bottom: "InnerProduct450"
  top: "InnerProduct450"
}
layer {
  name: "InnerProduct451"
  type: "InnerProduct"
  bottom: "Slice91"
  top: "InnerProduct451"
  param {
    name: "w_s"
    lr_mult: 1
    decay_mult: 1
  }
  param {
    name: "b_s"
    lr_mult: 2
    decay_mult: 0
  }
  inner_product_param {
    num_output: 128
    weight_filler {
      type: "gaussian"
      std: 0.0098765
    }
    bias_filler {
      type: "constant"
      value: 0
    }
  }
}
layer {
  name: "ReLU451"
  type: "ReLU"
  bottom: "InnerProduct451"
  top: "InnerProduct451"
}
layer {
  name: "InnerProduct452"
  type: "InnerProduct"
  bottom: "InnerProduct451"
  top: "InnerProduct452"
  param {
    name: "w_trans0"
    lr_mult: 1
    decay_mult: 1
  }
  param {
    name: "b_trans0"
    lr_mult: 2
    decay_mult: 0
  }
  inner_product_param {
    num_output: 128
    weight_filler {
      type: "gaussian"
      std: 0.0098765
    }
    bias_filler {
      type: "constant"
      value: 0
    }
  }
}
layer {
  name: "ReLU452"
  type: "ReLU"
  bottom: "InnerProduct452"
  top: "InnerProduct452"
}
layer {
  name: "InnerProduct453"
  type: "InnerProduct"
  bottom: "InnerProduct452"
  top: "InnerProduct453"
  param {
    name: "w_trans0"
    lr_mult: 1
    decay_mult: 1
  }
  param {
    name: "b_trans0"
    lr_mult: 2
    decay_mult: 0
  }
  inner_product_param {
    num_output: 128
    weight_filler {
      type: "gaussian"
      std: 0.0098765
    }
    bias_filler {
      type: "constant"
      value: 0
    }
  }
}
layer {
  name: "ReLU453"
  type: "ReLU"
  bottom: "InnerProduct453"
  top: "InnerProduct453"
}
layer {
  name: "InnerProduct454"
  type: "InnerProduct"
  bottom: "InnerProduct453"
  top: "InnerProduct454"
  param {
    name: "w_trans0"
    lr_mult: 1
    decay_mult: 1
  }
  param {
    name: "b_trans0"
    lr_mult: 2
    decay_mult: 0
  }
  inner_product_param {
    num_output: 128
    weight_filler {
      type: "gaussian"
      std: 0.0098765
    }
    bias_filler {
      type: "constant"
      value: 0
    }
  }
}
layer {
  name: "ReLU454"
  type: "ReLU"
  bottom: "InnerProduct454"
  top: "InnerProduct454"
}
layer {
  name: "InnerProduct455"
  type: "InnerProduct"
  bottom: "InnerProduct454"
  top: "InnerProduct455"
  param {
    name: "w_e"
    lr_mult: 1
    decay_mult: 1
  }
  param {
    name: "b_e"
    lr_mult: 2
    decay_mult: 0
  }
  inner_product_param {
    num_output: 2
    weight_filler {
      type: "gaussian"
      std: 0.0098765
    }
    bias_filler {
      type: "constant"
      value: 0
    }
  }
}
layer {
  name: "ReLU455"
  type: "ReLU"
  bottom: "InnerProduct455"
  top: "InnerProduct455"
}
layer {
  name: "InnerProduct456"
  type: "InnerProduct"
  bottom: "Slice92"
  top: "InnerProduct456"
  param {
    name: "w_s"
    lr_mult: 1
    decay_mult: 1
  }
  param {
    name: "b_s"
    lr_mult: 2
    decay_mult: 0
  }
  inner_product_param {
    num_output: 128
    weight_filler {
      type: "gaussian"
      std: 0.0098765
    }
    bias_filler {
      type: "constant"
      value: 0
    }
  }
}
layer {
  name: "ReLU456"
  type: "ReLU"
  bottom: "InnerProduct456"
  top: "InnerProduct456"
}
layer {
  name: "InnerProduct457"
  type: "InnerProduct"
  bottom: "InnerProduct456"
  top: "InnerProduct457"
  param {
    name: "w_trans0"
    lr_mult: 1
    decay_mult: 1
  }
  param {
    name: "b_trans0"
    lr_mult: 2
    decay_mult: 0
  }
  inner_product_param {
    num_output: 128
    weight_filler {
      type: "gaussian"
      std: 0.0098765
    }
    bias_filler {
      type: "constant"
      value: 0
    }
  }
}
layer {
  name: "ReLU457"
  type: "ReLU"
  bottom: "InnerProduct457"
  top: "InnerProduct457"
}
layer {
  name: "InnerProduct458"
  type: "InnerProduct"
  bottom: "InnerProduct457"
  top: "InnerProduct458"
  param {
    name: "w_trans0"
    lr_mult: 1
    decay_mult: 1
  }
  param {
    name: "b_trans0"
    lr_mult: 2
    decay_mult: 0
  }
  inner_product_param {
    num_output: 128
    weight_filler {
      type: "gaussian"
      std: 0.0098765
    }
    bias_filler {
      type: "constant"
      value: 0
    }
  }
}
layer {
  name: "ReLU458"
  type: "ReLU"
  bottom: "InnerProduct458"
  top: "InnerProduct458"
}
layer {
  name: "InnerProduct459"
  type: "InnerProduct"
  bottom: "InnerProduct458"
  top: "InnerProduct459"
  param {
    name: "w_trans0"
    lr_mult: 1
    decay_mult: 1
  }
  param {
    name: "b_trans0"
    lr_mult: 2
    decay_mult: 0
  }
  inner_product_param {
    num_output: 128
    weight_filler {
      type: "gaussian"
      std: 0.0098765
    }
    bias_filler {
      type: "constant"
      value: 0
    }
  }
}
layer {
  name: "ReLU459"
  type: "ReLU"
  bottom: "InnerProduct459"
  top: "InnerProduct459"
}
layer {
  name: "InnerProduct460"
  type: "InnerProduct"
  bottom: "InnerProduct459"
  top: "InnerProduct460"
  param {
    name: "w_e"
    lr_mult: 1
    decay_mult: 1
  }
  param {
    name: "b_e"
    lr_mult: 2
    decay_mult: 0
  }
  inner_product_param {
    num_output: 2
    weight_filler {
      type: "gaussian"
      std: 0.0098765
    }
    bias_filler {
      type: "constant"
      value: 0
    }
  }
}
layer {
  name: "ReLU460"
  type: "ReLU"
  bottom: "InnerProduct460"
  top: "InnerProduct460"
}
layer {
  name: "InnerProduct461"
  type: "InnerProduct"
  bottom: "Slice93"
  top: "InnerProduct461"
  param {
    name: "w_s"
    lr_mult: 1
    decay_mult: 1
  }
  param {
    name: "b_s"
    lr_mult: 2
    decay_mult: 0
  }
  inner_product_param {
    num_output: 128
    weight_filler {
      type: "gaussian"
      std: 0.0098765
    }
    bias_filler {
      type: "constant"
      value: 0
    }
  }
}
layer {
  name: "ReLU461"
  type: "ReLU"
  bottom: "InnerProduct461"
  top: "InnerProduct461"
}
layer {
  name: "InnerProduct462"
  type: "InnerProduct"
  bottom: "InnerProduct461"
  top: "InnerProduct462"
  param {
    name: "w_trans0"
    lr_mult: 1
    decay_mult: 1
  }
  param {
    name: "b_trans0"
    lr_mult: 2
    decay_mult: 0
  }
  inner_product_param {
    num_output: 128
    weight_filler {
      type: "gaussian"
      std: 0.0098765
    }
    bias_filler {
      type: "constant"
      value: 0
    }
  }
}
layer {
  name: "ReLU462"
  type: "ReLU"
  bottom: "InnerProduct462"
  top: "InnerProduct462"
}
layer {
  name: "InnerProduct463"
  type: "InnerProduct"
  bottom: "InnerProduct462"
  top: "InnerProduct463"
  param {
    name: "w_trans0"
    lr_mult: 1
    decay_mult: 1
  }
  param {
    name: "b_trans0"
    lr_mult: 2
    decay_mult: 0
  }
  inner_product_param {
    num_output: 128
    weight_filler {
      type: "gaussian"
      std: 0.0098765
    }
    bias_filler {
      type: "constant"
      value: 0
    }
  }
}
layer {
  name: "ReLU463"
  type: "ReLU"
  bottom: "InnerProduct463"
  top: "InnerProduct463"
}
layer {
  name: "InnerProduct464"
  type: "InnerProduct"
  bottom: "InnerProduct463"
  top: "InnerProduct464"
  param {
    name: "w_trans0"
    lr_mult: 1
    decay_mult: 1
  }
  param {
    name: "b_trans0"
    lr_mult: 2
    decay_mult: 0
  }
  inner_product_param {
    num_output: 128
    weight_filler {
      type: "gaussian"
      std: 0.0098765
    }
    bias_filler {
      type: "constant"
      value: 0
    }
  }
}
layer {
  name: "ReLU464"
  type: "ReLU"
  bottom: "InnerProduct464"
  top: "InnerProduct464"
}
layer {
  name: "InnerProduct465"
  type: "InnerProduct"
  bottom: "InnerProduct464"
  top: "InnerProduct465"
  param {
    name: "w_e"
    lr_mult: 1
    decay_mult: 1
  }
  param {
    name: "b_e"
    lr_mult: 2
    decay_mult: 0
  }
  inner_product_param {
    num_output: 2
    weight_filler {
      type: "gaussian"
      std: 0.0098765
    }
    bias_filler {
      type: "constant"
      value: 0
    }
  }
}
layer {
  name: "ReLU465"
  type: "ReLU"
  bottom: "InnerProduct465"
  top: "InnerProduct465"
}
layer {
  name: "InnerProduct466"
  type: "InnerProduct"
  bottom: "Slice94"
  top: "InnerProduct466"
  param {
    name: "w_s"
    lr_mult: 1
    decay_mult: 1
  }
  param {
    name: "b_s"
    lr_mult: 2
    decay_mult: 0
  }
  inner_product_param {
    num_output: 128
    weight_filler {
      type: "gaussian"
      std: 0.0098765
    }
    bias_filler {
      type: "constant"
      value: 0
    }
  }
}
layer {
  name: "ReLU466"
  type: "ReLU"
  bottom: "InnerProduct466"
  top: "InnerProduct466"
}
layer {
  name: "InnerProduct467"
  type: "InnerProduct"
  bottom: "InnerProduct466"
  top: "InnerProduct467"
  param {
    name: "w_trans0"
    lr_mult: 1
    decay_mult: 1
  }
  param {
    name: "b_trans0"
    lr_mult: 2
    decay_mult: 0
  }
  inner_product_param {
    num_output: 128
    weight_filler {
      type: "gaussian"
      std: 0.0098765
    }
    bias_filler {
      type: "constant"
      value: 0
    }
  }
}
layer {
  name: "ReLU467"
  type: "ReLU"
  bottom: "InnerProduct467"
  top: "InnerProduct467"
}
layer {
  name: "InnerProduct468"
  type: "InnerProduct"
  bottom: "InnerProduct467"
  top: "InnerProduct468"
  param {
    name: "w_trans0"
    lr_mult: 1
    decay_mult: 1
  }
  param {
    name: "b_trans0"
    lr_mult: 2
    decay_mult: 0
  }
  inner_product_param {
    num_output: 128
    weight_filler {
      type: "gaussian"
      std: 0.0098765
    }
    bias_filler {
      type: "constant"
      value: 0
    }
  }
}
layer {
  name: "ReLU468"
  type: "ReLU"
  bottom: "InnerProduct468"
  top: "InnerProduct468"
}
layer {
  name: "InnerProduct469"
  type: "InnerProduct"
  bottom: "InnerProduct468"
  top: "InnerProduct469"
  param {
    name: "w_trans0"
    lr_mult: 1
    decay_mult: 1
  }
  param {
    name: "b_trans0"
    lr_mult: 2
    decay_mult: 0
  }
  inner_product_param {
    num_output: 128
    weight_filler {
      type: "gaussian"
      std: 0.0098765
    }
    bias_filler {
      type: "constant"
      value: 0
    }
  }
}
layer {
  name: "ReLU469"
  type: "ReLU"
  bottom: "InnerProduct469"
  top: "InnerProduct469"
}
layer {
  name: "InnerProduct470"
  type: "InnerProduct"
  bottom: "InnerProduct469"
  top: "InnerProduct470"
  param {
    name: "w_e"
    lr_mult: 1
    decay_mult: 1
  }
  param {
    name: "b_e"
    lr_mult: 2
    decay_mult: 0
  }
  inner_product_param {
    num_output: 2
    weight_filler {
      type: "gaussian"
      std: 0.0098765
    }
    bias_filler {
      type: "constant"
      value: 0
    }
  }
}
layer {
  name: "ReLU470"
  type: "ReLU"
  bottom: "InnerProduct470"
  top: "InnerProduct470"
}
layer {
  name: "InnerProduct471"
  type: "InnerProduct"
  bottom: "Slice95"
  top: "InnerProduct471"
  param {
    name: "w_s"
    lr_mult: 1
    decay_mult: 1
  }
  param {
    name: "b_s"
    lr_mult: 2
    decay_mult: 0
  }
  inner_product_param {
    num_output: 128
    weight_filler {
      type: "gaussian"
      std: 0.0098765
    }
    bias_filler {
      type: "constant"
      value: 0
    }
  }
}
layer {
  name: "ReLU471"
  type: "ReLU"
  bottom: "InnerProduct471"
  top: "InnerProduct471"
}
layer {
  name: "InnerProduct472"
  type: "InnerProduct"
  bottom: "InnerProduct471"
  top: "InnerProduct472"
  param {
    name: "w_trans0"
    lr_mult: 1
    decay_mult: 1
  }
  param {
    name: "b_trans0"
    lr_mult: 2
    decay_mult: 0
  }
  inner_product_param {
    num_output: 128
    weight_filler {
      type: "gaussian"
      std: 0.0098765
    }
    bias_filler {
      type: "constant"
      value: 0
    }
  }
}
layer {
  name: "ReLU472"
  type: "ReLU"
  bottom: "InnerProduct472"
  top: "InnerProduct472"
}
layer {
  name: "InnerProduct473"
  type: "InnerProduct"
  bottom: "InnerProduct472"
  top: "InnerProduct473"
  param {
    name: "w_trans0"
    lr_mult: 1
    decay_mult: 1
  }
  param {
    name: "b_trans0"
    lr_mult: 2
    decay_mult: 0
  }
  inner_product_param {
    num_output: 128
    weight_filler {
      type: "gaussian"
      std: 0.0098765
    }
    bias_filler {
      type: "constant"
      value: 0
    }
  }
}
layer {
  name: "ReLU473"
  type: "ReLU"
  bottom: "InnerProduct473"
  top: "InnerProduct473"
}
layer {
  name: "InnerProduct474"
  type: "InnerProduct"
  bottom: "InnerProduct473"
  top: "InnerProduct474"
  param {
    name: "w_trans0"
    lr_mult: 1
    decay_mult: 1
  }
  param {
    name: "b_trans0"
    lr_mult: 2
    decay_mult: 0
  }
  inner_product_param {
    num_output: 128
    weight_filler {
      type: "gaussian"
      std: 0.0098765
    }
    bias_filler {
      type: "constant"
      value: 0
    }
  }
}
layer {
  name: "ReLU474"
  type: "ReLU"
  bottom: "InnerProduct474"
  top: "InnerProduct474"
}
layer {
  name: "InnerProduct475"
  type: "InnerProduct"
  bottom: "InnerProduct474"
  top: "InnerProduct475"
  param {
    name: "w_e"
    lr_mult: 1
    decay_mult: 1
  }
  param {
    name: "b_e"
    lr_mult: 2
    decay_mult: 0
  }
  inner_product_param {
    num_output: 2
    weight_filler {
      type: "gaussian"
      std: 0.0098765
    }
    bias_filler {
      type: "constant"
      value: 0
    }
  }
}
layer {
  name: "ReLU475"
  type: "ReLU"
  bottom: "InnerProduct475"
  top: "InnerProduct475"
}
layer {
  name: "InnerProduct476"
  type: "InnerProduct"
  bottom: "Slice96"
  top: "InnerProduct476"
  param {
    name: "w_s"
    lr_mult: 1
    decay_mult: 1
  }
  param {
    name: "b_s"
    lr_mult: 2
    decay_mult: 0
  }
  inner_product_param {
    num_output: 128
    weight_filler {
      type: "gaussian"
      std: 0.0098765
    }
    bias_filler {
      type: "constant"
      value: 0
    }
  }
}
layer {
  name: "ReLU476"
  type: "ReLU"
  bottom: "InnerProduct476"
  top: "InnerProduct476"
}
layer {
  name: "InnerProduct477"
  type: "InnerProduct"
  bottom: "InnerProduct476"
  top: "InnerProduct477"
  param {
    name: "w_trans0"
    lr_mult: 1
    decay_mult: 1
  }
  param {
    name: "b_trans0"
    lr_mult: 2
    decay_mult: 0
  }
  inner_product_param {
    num_output: 128
    weight_filler {
      type: "gaussian"
      std: 0.0098765
    }
    bias_filler {
      type: "constant"
      value: 0
    }
  }
}
layer {
  name: "ReLU477"
  type: "ReLU"
  bottom: "InnerProduct477"
  top: "InnerProduct477"
}
layer {
  name: "InnerProduct478"
  type: "InnerProduct"
  bottom: "InnerProduct477"
  top: "InnerProduct478"
  param {
    name: "w_trans0"
    lr_mult: 1
    decay_mult: 1
  }
  param {
    name: "b_trans0"
    lr_mult: 2
    decay_mult: 0
  }
  inner_product_param {
    num_output: 128
    weight_filler {
      type: "gaussian"
      std: 0.0098765
    }
    bias_filler {
      type: "constant"
      value: 0
    }
  }
}
layer {
  name: "ReLU478"
  type: "ReLU"
  bottom: "InnerProduct478"
  top: "InnerProduct478"
}
layer {
  name: "InnerProduct479"
  type: "InnerProduct"
  bottom: "InnerProduct478"
  top: "InnerProduct479"
  param {
    name: "w_trans0"
    lr_mult: 1
    decay_mult: 1
  }
  param {
    name: "b_trans0"
    lr_mult: 2
    decay_mult: 0
  }
  inner_product_param {
    num_output: 128
    weight_filler {
      type: "gaussian"
      std: 0.0098765
    }
    bias_filler {
      type: "constant"
      value: 0
    }
  }
}
layer {
  name: "ReLU479"
  type: "ReLU"
  bottom: "InnerProduct479"
  top: "InnerProduct479"
}
layer {
  name: "InnerProduct480"
  type: "InnerProduct"
  bottom: "InnerProduct479"
  top: "InnerProduct480"
  param {
    name: "w_e"
    lr_mult: 1
    decay_mult: 1
  }
  param {
    name: "b_e"
    lr_mult: 2
    decay_mult: 0
  }
  inner_product_param {
    num_output: 2
    weight_filler {
      type: "gaussian"
      std: 0.0098765
    }
    bias_filler {
      type: "constant"
      value: 0
    }
  }
}
layer {
  name: "ReLU480"
  type: "ReLU"
  bottom: "InnerProduct480"
  top: "InnerProduct480"
}
layer {
  name: "InnerProduct481"
  type: "InnerProduct"
  bottom: "Slice97"
  top: "InnerProduct481"
  param {
    name: "w_s"
    lr_mult: 1
    decay_mult: 1
  }
  param {
    name: "b_s"
    lr_mult: 2
    decay_mult: 0
  }
  inner_product_param {
    num_output: 128
    weight_filler {
      type: "gaussian"
      std: 0.0098765
    }
    bias_filler {
      type: "constant"
      value: 0
    }
  }
}
layer {
  name: "ReLU481"
  type: "ReLU"
  bottom: "InnerProduct481"
  top: "InnerProduct481"
}
layer {
  name: "InnerProduct482"
  type: "InnerProduct"
  bottom: "InnerProduct481"
  top: "InnerProduct482"
  param {
    name: "w_trans0"
    lr_mult: 1
    decay_mult: 1
  }
  param {
    name: "b_trans0"
    lr_mult: 2
    decay_mult: 0
  }
  inner_product_param {
    num_output: 128
    weight_filler {
      type: "gaussian"
      std: 0.0098765
    }
    bias_filler {
      type: "constant"
      value: 0
    }
  }
}
layer {
  name: "ReLU482"
  type: "ReLU"
  bottom: "InnerProduct482"
  top: "InnerProduct482"
}
layer {
  name: "InnerProduct483"
  type: "InnerProduct"
  bottom: "InnerProduct482"
  top: "InnerProduct483"
  param {
    name: "w_trans0"
    lr_mult: 1
    decay_mult: 1
  }
  param {
    name: "b_trans0"
    lr_mult: 2
    decay_mult: 0
  }
  inner_product_param {
    num_output: 128
    weight_filler {
      type: "gaussian"
      std: 0.0098765
    }
    bias_filler {
      type: "constant"
      value: 0
    }
  }
}
layer {
  name: "ReLU483"
  type: "ReLU"
  bottom: "InnerProduct483"
  top: "InnerProduct483"
}
layer {
  name: "InnerProduct484"
  type: "InnerProduct"
  bottom: "InnerProduct483"
  top: "InnerProduct484"
  param {
    name: "w_trans0"
    lr_mult: 1
    decay_mult: 1
  }
  param {
    name: "b_trans0"
    lr_mult: 2
    decay_mult: 0
  }
  inner_product_param {
    num_output: 128
    weight_filler {
      type: "gaussian"
      std: 0.0098765
    }
    bias_filler {
      type: "constant"
      value: 0
    }
  }
}
layer {
  name: "ReLU484"
  type: "ReLU"
  bottom: "InnerProduct484"
  top: "InnerProduct484"
}
layer {
  name: "InnerProduct485"
  type: "InnerProduct"
  bottom: "InnerProduct484"
  top: "InnerProduct485"
  param {
    name: "w_e"
    lr_mult: 1
    decay_mult: 1
  }
  param {
    name: "b_e"
    lr_mult: 2
    decay_mult: 0
  }
  inner_product_param {
    num_output: 2
    weight_filler {
      type: "gaussian"
      std: 0.0098765
    }
    bias_filler {
      type: "constant"
      value: 0
    }
  }
}
layer {
  name: "ReLU485"
  type: "ReLU"
  bottom: "InnerProduct485"
  top: "InnerProduct485"
}
layer {
  name: "InnerProduct486"
  type: "InnerProduct"
  bottom: "Slice98"
  top: "InnerProduct486"
  param {
    name: "w_s"
    lr_mult: 1
    decay_mult: 1
  }
  param {
    name: "b_s"
    lr_mult: 2
    decay_mult: 0
  }
  inner_product_param {
    num_output: 128
    weight_filler {
      type: "gaussian"
      std: 0.0098765
    }
    bias_filler {
      type: "constant"
      value: 0
    }
  }
}
layer {
  name: "ReLU486"
  type: "ReLU"
  bottom: "InnerProduct486"
  top: "InnerProduct486"
}
layer {
  name: "InnerProduct487"
  type: "InnerProduct"
  bottom: "InnerProduct486"
  top: "InnerProduct487"
  param {
    name: "w_trans0"
    lr_mult: 1
    decay_mult: 1
  }
  param {
    name: "b_trans0"
    lr_mult: 2
    decay_mult: 0
  }
  inner_product_param {
    num_output: 128
    weight_filler {
      type: "gaussian"
      std: 0.0098765
    }
    bias_filler {
      type: "constant"
      value: 0
    }
  }
}
layer {
  name: "ReLU487"
  type: "ReLU"
  bottom: "InnerProduct487"
  top: "InnerProduct487"
}
layer {
  name: "InnerProduct488"
  type: "InnerProduct"
  bottom: "InnerProduct487"
  top: "InnerProduct488"
  param {
    name: "w_trans0"
    lr_mult: 1
    decay_mult: 1
  }
  param {
    name: "b_trans0"
    lr_mult: 2
    decay_mult: 0
  }
  inner_product_param {
    num_output: 128
    weight_filler {
      type: "gaussian"
      std: 0.0098765
    }
    bias_filler {
      type: "constant"
      value: 0
    }
  }
}
layer {
  name: "ReLU488"
  type: "ReLU"
  bottom: "InnerProduct488"
  top: "InnerProduct488"
}
layer {
  name: "InnerProduct489"
  type: "InnerProduct"
  bottom: "InnerProduct488"
  top: "InnerProduct489"
  param {
    name: "w_trans0"
    lr_mult: 1
    decay_mult: 1
  }
  param {
    name: "b_trans0"
    lr_mult: 2
    decay_mult: 0
  }
  inner_product_param {
    num_output: 128
    weight_filler {
      type: "gaussian"
      std: 0.0098765
    }
    bias_filler {
      type: "constant"
      value: 0
    }
  }
}
layer {
  name: "ReLU489"
  type: "ReLU"
  bottom: "InnerProduct489"
  top: "InnerProduct489"
}
layer {
  name: "InnerProduct490"
  type: "InnerProduct"
  bottom: "InnerProduct489"
  top: "InnerProduct490"
  param {
    name: "w_e"
    lr_mult: 1
    decay_mult: 1
  }
  param {
    name: "b_e"
    lr_mult: 2
    decay_mult: 0
  }
  inner_product_param {
    num_output: 2
    weight_filler {
      type: "gaussian"
      std: 0.0098765
    }
    bias_filler {
      type: "constant"
      value: 0
    }
  }
}
layer {
  name: "ReLU490"
  type: "ReLU"
  bottom: "InnerProduct490"
  top: "InnerProduct490"
}
layer {
  name: "InnerProduct491"
  type: "InnerProduct"
  bottom: "Slice99"
  top: "InnerProduct491"
  param {
    name: "w_s"
    lr_mult: 1
    decay_mult: 1
  }
  param {
    name: "b_s"
    lr_mult: 2
    decay_mult: 0
  }
  inner_product_param {
    num_output: 128
    weight_filler {
      type: "gaussian"
      std: 0.0098765
    }
    bias_filler {
      type: "constant"
      value: 0
    }
  }
}
layer {
  name: "ReLU491"
  type: "ReLU"
  bottom: "InnerProduct491"
  top: "InnerProduct491"
}
layer {
  name: "InnerProduct492"
  type: "InnerProduct"
  bottom: "InnerProduct491"
  top: "InnerProduct492"
  param {
    name: "w_trans0"
    lr_mult: 1
    decay_mult: 1
  }
  param {
    name: "b_trans0"
    lr_mult: 2
    decay_mult: 0
  }
  inner_product_param {
    num_output: 128
    weight_filler {
      type: "gaussian"
      std: 0.0098765
    }
    bias_filler {
      type: "constant"
      value: 0
    }
  }
}
layer {
  name: "ReLU492"
  type: "ReLU"
  bottom: "InnerProduct492"
  top: "InnerProduct492"
}
layer {
  name: "InnerProduct493"
  type: "InnerProduct"
  bottom: "InnerProduct492"
  top: "InnerProduct493"
  param {
    name: "w_trans0"
    lr_mult: 1
    decay_mult: 1
  }
  param {
    name: "b_trans0"
    lr_mult: 2
    decay_mult: 0
  }
  inner_product_param {
    num_output: 128
    weight_filler {
      type: "gaussian"
      std: 0.0098765
    }
    bias_filler {
      type: "constant"
      value: 0
    }
  }
}
layer {
  name: "ReLU493"
  type: "ReLU"
  bottom: "InnerProduct493"
  top: "InnerProduct493"
}
layer {
  name: "InnerProduct494"
  type: "InnerProduct"
  bottom: "InnerProduct493"
  top: "InnerProduct494"
  param {
    name: "w_trans0"
    lr_mult: 1
    decay_mult: 1
  }
  param {
    name: "b_trans0"
    lr_mult: 2
    decay_mult: 0
  }
  inner_product_param {
    num_output: 128
    weight_filler {
      type: "gaussian"
      std: 0.0098765
    }
    bias_filler {
      type: "constant"
      value: 0
    }
  }
}
layer {
  name: "ReLU494"
  type: "ReLU"
  bottom: "InnerProduct494"
  top: "InnerProduct494"
}
layer {
  name: "InnerProduct495"
  type: "InnerProduct"
  bottom: "InnerProduct494"
  top: "InnerProduct495"
  param {
    name: "w_e"
    lr_mult: 1
    decay_mult: 1
  }
  param {
    name: "b_e"
    lr_mult: 2
    decay_mult: 0
  }
  inner_product_param {
    num_output: 2
    weight_filler {
      type: "gaussian"
      std: 0.0098765
    }
    bias_filler {
      type: "constant"
      value: 0
    }
  }
}
layer {
  name: "ReLU495"
  type: "ReLU"
  bottom: "InnerProduct495"
  top: "InnerProduct495"
}
layer {
  name: "InnerProduct496"
  type: "InnerProduct"
  bottom: "Slice100"
  top: "InnerProduct496"
  param {
    name: "w_s"
    lr_mult: 1
    decay_mult: 1
  }
  param {
    name: "b_s"
    lr_mult: 2
    decay_mult: 0
  }
  inner_product_param {
    num_output: 128
    weight_filler {
      type: "gaussian"
      std: 0.0098765
    }
    bias_filler {
      type: "constant"
      value: 0
    }
  }
}
layer {
  name: "ReLU496"
  type: "ReLU"
  bottom: "InnerProduct496"
  top: "InnerProduct496"
}
layer {
  name: "InnerProduct497"
  type: "InnerProduct"
  bottom: "InnerProduct496"
  top: "InnerProduct497"
  param {
    name: "w_trans0"
    lr_mult: 1
    decay_mult: 1
  }
  param {
    name: "b_trans0"
    lr_mult: 2
    decay_mult: 0
  }
  inner_product_param {
    num_output: 128
    weight_filler {
      type: "gaussian"
      std: 0.0098765
    }
    bias_filler {
      type: "constant"
      value: 0
    }
  }
}
layer {
  name: "ReLU497"
  type: "ReLU"
  bottom: "InnerProduct497"
  top: "InnerProduct497"
}
layer {
  name: "InnerProduct498"
  type: "InnerProduct"
  bottom: "InnerProduct497"
  top: "InnerProduct498"
  param {
    name: "w_trans0"
    lr_mult: 1
    decay_mult: 1
  }
  param {
    name: "b_trans0"
    lr_mult: 2
    decay_mult: 0
  }
  inner_product_param {
    num_output: 128
    weight_filler {
      type: "gaussian"
      std: 0.0098765
    }
    bias_filler {
      type: "constant"
      value: 0
    }
  }
}
layer {
  name: "ReLU498"
  type: "ReLU"
  bottom: "InnerProduct498"
  top: "InnerProduct498"
}
layer {
  name: "InnerProduct499"
  type: "InnerProduct"
  bottom: "InnerProduct498"
  top: "InnerProduct499"
  param {
    name: "w_trans0"
    lr_mult: 1
    decay_mult: 1
  }
  param {
    name: "b_trans0"
    lr_mult: 2
    decay_mult: 0
  }
  inner_product_param {
    num_output: 128
    weight_filler {
      type: "gaussian"
      std: 0.0098765
    }
    bias_filler {
      type: "constant"
      value: 0
    }
  }
}
layer {
  name: "ReLU499"
  type: "ReLU"
  bottom: "InnerProduct499"
  top: "InnerProduct499"
}
layer {
  name: "InnerProduct500"
  type: "InnerProduct"
  bottom: "InnerProduct499"
  top: "InnerProduct500"
  param {
    name: "w_e"
    lr_mult: 1
    decay_mult: 1
  }
  param {
    name: "b_e"
    lr_mult: 2
    decay_mult: 0
  }
  inner_product_param {
    num_output: 2
    weight_filler {
      type: "gaussian"
      std: 0.0098765
    }
    bias_filler {
      type: "constant"
      value: 0
    }
  }
}
layer {
  name: "ReLU500"
  type: "ReLU"
  bottom: "InnerProduct500"
  top: "InnerProduct500"
}
layer {
  name: "Concat1"
  type: "Concat"
  bottom: "InnerProduct5"
  bottom: "InnerProduct10"
  bottom: "InnerProduct15"
  bottom: "InnerProduct20"
  bottom: "InnerProduct25"
  bottom: "InnerProduct30"
  bottom: "InnerProduct35"
  bottom: "InnerProduct40"
  bottom: "InnerProduct45"
  bottom: "InnerProduct50"
  bottom: "InnerProduct55"
  bottom: "InnerProduct60"
  bottom: "InnerProduct65"
  bottom: "InnerProduct70"
  bottom: "InnerProduct75"
  bottom: "InnerProduct80"
  bottom: "InnerProduct85"
  bottom: "InnerProduct90"
  bottom: "InnerProduct95"
  bottom: "InnerProduct100"
  bottom: "InnerProduct105"
  bottom: "InnerProduct110"
  bottom: "InnerProduct115"
  bottom: "InnerProduct120"
  bottom: "InnerProduct125"
  bottom: "InnerProduct130"
  bottom: "InnerProduct135"
  bottom: "InnerProduct140"
  bottom: "InnerProduct145"
  bottom: "InnerProduct150"
  bottom: "InnerProduct155"
  bottom: "InnerProduct160"
  bottom: "InnerProduct165"
  bottom: "InnerProduct170"
  bottom: "InnerProduct175"
  bottom: "InnerProduct180"
  bottom: "InnerProduct185"
  bottom: "InnerProduct190"
  bottom: "InnerProduct195"
  bottom: "InnerProduct200"
  bottom: "InnerProduct205"
  bottom: "InnerProduct210"
  bottom: "InnerProduct215"
  bottom: "InnerProduct220"
  bottom: "InnerProduct225"
  bottom: "InnerProduct230"
  bottom: "InnerProduct235"
  bottom: "InnerProduct240"
  bottom: "InnerProduct245"
  bottom: "InnerProduct250"
  bottom: "InnerProduct255"
  bottom: "InnerProduct260"
  bottom: "InnerProduct265"
  bottom: "InnerProduct270"
  bottom: "InnerProduct275"
  bottom: "InnerProduct280"
  bottom: "InnerProduct285"
  bottom: "InnerProduct290"
  bottom: "InnerProduct295"
  bottom: "InnerProduct300"
  bottom: "InnerProduct305"
  bottom: "InnerProduct310"
  bottom: "InnerProduct315"
  bottom: "InnerProduct320"
  bottom: "InnerProduct325"
  bottom: "InnerProduct330"
  bottom: "InnerProduct335"
  bottom: "InnerProduct340"
  bottom: "InnerProduct345"
  bottom: "InnerProduct350"
  bottom: "InnerProduct355"
  bottom: "InnerProduct360"
  bottom: "InnerProduct365"
  bottom: "InnerProduct370"
  bottom: "InnerProduct375"
  bottom: "InnerProduct380"
  bottom: "InnerProduct385"
  bottom: "InnerProduct390"
  bottom: "InnerProduct395"
  bottom: "InnerProduct400"
  bottom: "InnerProduct405"
  bottom: "InnerProduct410"
  bottom: "InnerProduct415"
  bottom: "InnerProduct420"
  bottom: "InnerProduct425"
  bottom: "InnerProduct430"
  bottom: "InnerProduct435"
  bottom: "InnerProduct440"
  bottom: "InnerProduct445"
  bottom: "InnerProduct450"
  bottom: "InnerProduct455"
  bottom: "InnerProduct460"
  bottom: "InnerProduct465"
  bottom: "InnerProduct470"
  bottom: "InnerProduct475"
  bottom: "InnerProduct480"
  bottom: "InnerProduct485"
  bottom: "InnerProduct490"
  bottom: "InnerProduct495"
  bottom: "InnerProduct500"
  top: "Concat1"
}
layer {
  name: "InnerProduct501"
  type: "InnerProduct"
  bottom: "Concat1"
  top: "InnerProduct501"
  param {
    lr_mult: 1
    decay_mult: 1
  }
  param {
    lr_mult: 2
    decay_mult: 0
  }
  inner_product_param {
    num_output: 4096
    weight_filler {
      type: "gaussian"
      std: 0.0098765
    }
    bias_filler {
      type: "constant"
      value: 0
    }
  }
}
layer {
  name: "ReLU501"
  type: "ReLU"
  bottom: "InnerProduct501"
  top: "InnerProduct501"
}
layer {
  name: "InnerProduct502"
  type: "InnerProduct"
  bottom: "InnerProduct501"
  top: "InnerProduct502"
  param {
    name: "w"
    lr_mult: 1
    decay_mult: 1
  }
  param {
    name: "b"
    lr_mult: 2
    decay_mult: 0
  }
  inner_product_param {
    num_output: 4096
    weight_filler {
      type: "gaussian"
      std: 0.0098765
    }
    bias_filler {
      type: "constant"
      value: 0
    }
  }
}
layer {
  name: "ReLU502"
  type: "ReLU"
  bottom: "InnerProduct502"
  top: "InnerProduct502"
}
layer {
  name: "InnerProduct503"
  type: "InnerProduct"
  bottom: "InnerProduct502"
  top: "InnerProduct503"
  param {
    name: "w"
    lr_mult: 1
    decay_mult: 1
  }
  param {
    name: "b"
    lr_mult: 2
    decay_mult: 0
  }
  inner_product_param {
    num_output: 4096
    weight_filler {
      type: "gaussian"
      std: 0.0098765
    }
    bias_filler {
      type: "constant"
      value: 0
    }
  }
}
layer {
  name: "ReLU503"
  type: "ReLU"
  bottom: "InnerProduct503"
  top: "InnerProduct503"
}
layer {
  name: "InnerProduct504"
  type: "InnerProduct"
  bottom: "InnerProduct503"
  top: "InnerProduct504"
  param {
    name: "w"
    lr_mult: 1
    decay_mult: 1
  }
  param {
    name: "b"
    lr_mult: 2
    decay_mult: 0
  }
  inner_product_param {
    num_output: 4096
    weight_filler {
      type: "gaussian"
      std: 0.0098765
    }
    bias_filler {
      type: "constant"
      value: 0
    }
  }
}
layer {
  name: "ReLU504"
  type: "ReLU"
  bottom: "InnerProduct504"
  top: "InnerProduct504"
}
layer {
  name: "InnerProduct505"
  type: "InnerProduct"
  bottom: "InnerProduct504"
  top: "InnerProduct505"
  param {
    lr_mult: 1
    decay_mult: 1
  }
  param {
    lr_mult: 2
    decay_mult: 0
  }
  inner_product_param {
    num_output: 4096
    weight_filler {
      type: "gaussian"
      std: 0.0098765
    }
    bias_filler {
      type: "constant"
      value: 0
    }
  }
}
layer {
  name: "ReLU505"
  type: "ReLU"
  bottom: "InnerProduct505"
  top: "InnerProduct505"
}
layer {
  name: "InnerProduct506"
  type: "InnerProduct"
  bottom: "InnerProduct505"
  top: "InnerProduct506"
  param {
    lr_mult: 1
    decay_mult: 1
  }
  param {
    lr_mult: 2
    decay_mult: 0
  }
  inner_product_param {
    num_output: 4096
    weight_filler {
      type: "gaussian"
      std: 0.0098765
    }
    bias_filler {
      type: "constant"
      value: 0
    }
  }
}
layer {
  name: "ReLU506"
  type: "ReLU"
  bottom: "InnerProduct506"
  top: "InnerProduct506"
}
layer {
  name: "InnerProduct507"
  type: "InnerProduct"
  bottom: "InnerProduct506"
  top: "InnerProduct507"
  param {
    lr_mult: 1
    decay_mult: 1
  }
  param {
    lr_mult: 2
    decay_mult: 0
  }
  inner_product_param {
    num_output: 10
    weight_filler {
      type: "gaussian"
      std: 0.0098765
    }
    bias_filler {
      type: "constant"
      value: 0
    }
  }
}
layer {
  name: "SoftmaxWithLoss1"
  type: "SoftmaxWithLoss"
  bottom: "InnerProduct507"
  bottom: "label"
  top: "SoftmaxWithLoss1"
  loss_weight: 1.0
}
